…
[38;5;15m    [39m[38;5;197mNUM_ITER[39m[38;5;15m:[39m[38;5;15m [39m[38;5;141m200[39m
[38;5;197mVERSION[39m[38;5;15m:[39m[38;5;15m [39m[38;5;141m2[39m
[38;5;197mVIS_PERIOD[39m[38;5;15m:[39m[38;5;15m [39m[38;5;141m0[39m

[32m[06/24 17:07:45 detectron2]: [0mFull config saved to /path/workspace/research/segmentation/BoxSeg/../BoxSeg_checkpoints/gavyn.voc.boxseg_r50_1x/config.yaml
[32m[06/24 17:07:45 d2.utils.env]: [0mUsing a generated random seed 46037696
[32m[06/24 17:07:47 d2.engine.defaults]: [0mModel:
BoxSeg(
  (teacher): CondInst(
    (backbone): FPN(
      (fpn_lateral3): Conv2d(512, 256, kernel_size=(1, 1), stride=(1, 1))
      (fpn_output3): Conv2d(256, 256, kernel_size=(3, 3), stride=(1, 1), padding=(1, 1))
      (fpn_lateral4): Conv2d(1024, 256, kernel_size=(1, 1), stride=(1, 1))
      (fpn_output4): Conv2d(256, 256, kernel_size=(3, 3), stride=(1, 1), padding=(1, 1))
      (fpn_lateral5): Conv2d(2048, 256, kernel_size=(1, 1), stride=(1, 1))
      (fpn_output5): Conv2d(256, 256, kernel_size=(3, 3), stride=(1, 1), padding=(1, 1))
      (top_block): LastLevelP6P7(
        (p6): Conv2d(256, 256, kernel_size=(3, 3), stride=(2, 2), padding=(1, 1))
        (p7): Conv2d(256, 256, kernel_size=(3, 3), stride=(2, 2), padding=(1, 1))
      )
      (bottom_up): ResNet(
        (stem): BasicStem(
          (conv1): Conv2d(
            3, 64, kernel_size=(7, 7), stride=(2, 2), padding=(3, 3), bias=False
            (norm): FrozenBatchNorm2d(num_features=64, eps=1e-05)
          )
        )
        (res2): Sequential(
          (0): BottleneckBlock(
            (shortcut): Conv2d(
              64, 256, kernel_size=(1, 1), stride=(1, 1), bias=False
              (norm): FrozenBatchNorm2d(num_features=256, eps=1e-05)
            )
            (conv1): Conv2d(
              64, 64, kernel_size=(1, 1), stride=(1, 1), bias=False
              (norm): FrozenBatchNorm2d(num_features=64, eps=1e-05)
            )
            (conv2): Conv2d(
              64, 64, kernel_size=(3, 3), stride=(1, 1), padding=(1, 1), bias=False
              (norm): FrozenBatchNorm2d(num_features=64, eps=1e-05)
            )
            (conv3): Conv2d(
              64, 256, kernel_size=(1, 1), stride=(1, 1), bias=False
              (norm): FrozenBatchNorm2d(num_features=256, eps=1e-05)
            )
          )
          (1): BottleneckBlock(
            (conv1): Conv2d(
              256, 64, kernel_size=(1, 1), stride=(1, 1), bias=False
              (norm): FrozenBatchNorm2d(num_features=64, eps=1e-05)
            )
            (conv2): Conv2d(
              64, 64, kernel_size=(3, 3), stride=(1, 1), padding=(1, 1), bias=False
              (norm): FrozenBatchNorm2d(num_features=64, eps=1e-05)
            )
            (conv3): Conv2d(
              64, 256, kernel_size=(1, 1), stride=(1, 1), bias=False
              (norm): FrozenBatchNorm2d(num_features=256, eps=1e-05)
            )
          )
          (2): BottleneckBlock(
            (conv1): Conv2d(
              256, 64, kernel_size=(1, 1), stride=(1, 1), bias=False
              (norm): FrozenBatchNorm2d(num_features=64, eps=1e-05)
            )
            (conv2): Conv2d(
              64, 64, kernel_size=(3, 3), stride=(1, 1), padding=(1, 1), bias=False
              (norm): FrozenBatchNorm2d(num_features=64, eps=1e-05)
            )
            (conv3): Conv2d(
              64, 256, kernel_size=(1, 1), stride=(1, 1), bias=False
              (norm): FrozenBatchNorm2d(num_features=256, eps=1e-05)
            )
          )
        )
        (res3): Sequential(
          (0): BottleneckBlock(
            (shortcut): Conv2d(
              256, 512, kernel_size=(1, 1), stride=(2, 2), bias=False
              (norm): FrozenBatchNorm2d(num_features=512, eps=1e-05)
            )
            (conv1): Conv2d(
              256, 128, kernel_size=(1, 1), stride=(2, 2), bias=False
              (norm): FrozenBatchNorm2d(num_features=128, eps=1e-05)
            )
            (conv2): Conv2d(
              128, 128, kernel_size=(3, 3), stride=(1, 1), padding=(1, 1), bias=False
              (norm): FrozenBatchNorm2d(num_features=128, eps=1e-05)
            )
            (conv3): Conv2d(
              128, 512, kernel_size=(1, 1), stride=(1, 1), bias=False
              (norm): FrozenBatchNorm2d(num_features=512, eps=1e-05)
            )
          )
          (1): BottleneckBlock(
            (conv1): Conv2d(
              512, 128, kernel_size=(1, 1), stride=(1, 1), bias=False
              (norm): FrozenBatchNorm2d(num_features=128, eps=1e-05)
            )
            (conv2): Conv2d(
              128, 128, kernel_size=(3, 3), stride=(1, 1), padding=(1, 1), bias=False
              (norm): FrozenBatchNorm2d(num_features=128, eps=1e-05)
            )
            (conv3): Conv2d(
              128, 512, kernel_size=(1, 1), stride=(1, 1), bias=False
              (norm): FrozenBatchNorm2d(num_features=512, eps=1e-05)
            )
          )
          (2): BottleneckBlock(
            (conv1): Conv2d(
              512, 128, kernel_size=(1, 1), stride=(1, 1), bias=False
              (norm): FrozenBatchNorm2d(num_features=128, eps=1e-05)
            )
            (conv2): Conv2d(
              128, 128, kernel_size=(3, 3), stride=(1, 1), padding=(1, 1), bias=False
              (norm): FrozenBatchNorm2d(num_features=128, eps=1e-05)
            )
            (conv3): Conv2d(
              128, 512, kernel_size=(1, 1), stride=(1, 1), bias=False
              (norm): FrozenBatchNorm2d(num_features=512, eps=1e-05)
            )
          )
          (3): BottleneckBlock(
            (conv1): Conv2d(
              512, 128, kernel_size=(1, 1), stride=(1, 1), bias=False
              (norm): FrozenBatchNorm2d(num_features=128, eps=1e-05)
            )
            (conv2): Conv2d(
              128, 128, kernel_size=(3, 3), stride=(1, 1), padding=(1, 1), bias=False
              (norm): FrozenBatchNorm2d(num_features=128, eps=1e-05)
            )
            (conv3): Conv2d(
              128, 512, kernel_size=(1, 1), stride=(1, 1), bias=False
              (norm): FrozenBatchNorm2d(num_features=512, eps=1e-05)
            )
          )
        )
        (res4): Sequential(
          (0): BottleneckBlock(
            (shortcut): Conv2d(
              512, 1024, kernel_size=(1, 1), stride=(2, 2), bias=False
              (norm): FrozenBatchNorm2d(num_features=1024, eps=1e-05)
            )
            (conv1): Conv2d(
              512, 256, kernel_size=(1, 1), stride=(2, 2), bias=False
              (norm): FrozenBatchNorm2d(num_features=256, eps=1e-05)
            )
            (conv2): Conv2d(
              256, 256, kernel_size=(3, 3), stride=(1, 1), padding=(1, 1), bias=False
              (norm): FrozenBatchNorm2d(num_features=256, eps=1e-05)
            )
            (conv3): Conv2d(
              256, 1024, kernel_size=(1, 1), stride=(1, 1), bias=False
              (norm): FrozenBatchNorm2d(num_features=1024, eps=1e-05)
            )
          )
          (1): BottleneckBlock(
            (conv1): Conv2d(
              1024, 256, kernel_size=(1, 1), stride=(1, 1), bias=False
              (norm): FrozenBatchNorm2d(num_features=256, eps=1e-05)
            )
            (conv2): Conv2d(
              256, 256, kernel_size=(3, 3), stride=(1, 1), padding=(1, 1), bias=False
              (norm): FrozenBatchNorm2d(num_features=256, eps=1e-05)
            )
            (conv3): Conv2d(
              256, 1024, kernel_size=(1, 1), stride=(1, 1), bias=False
              (norm): FrozenBatchNorm2d(num_features=1024, eps=1e-05)
            )
          )
          (2): BottleneckBlock(
            (conv1): Conv2d(
              1024, 256, kernel_size=(1, 1), stride=(1, 1), bias=False
              (norm): FrozenBatchNorm2d(num_features=256, eps=1e-05)
            )
            (conv2): Conv2d(
              256, 256, kernel_size=(3, 3), stride=(1, 1), padding=(1, 1), bias=False
              (norm): FrozenBatchNorm2d(num_features=256, eps=1e-05)
            )
            (conv3): Conv2d(
              256, 1024, kernel_size=(1, 1), stride=(1, 1), bias=False
              (norm): FrozenBatchNorm2d(num_features=1024, eps=1e-05)
            )
          )
          (3): BottleneckBlock(
            (conv1): Conv2d(
              1024, 256, kernel_size=(1, 1), stride=(1, 1), bias=False
              (norm): FrozenBatchNorm2d(num_features=256, eps=1e-05)
            )
            (conv2): Conv2d(
              256, 256, kernel_size=(3, 3), stride=(1, 1), padding=(1, 1), bias=False
              (norm): FrozenBatchNorm2d(num_features=256, eps=1e-05)
            )
            (conv3): Conv2d(
              256, 1024, kernel_size=(1, 1), stride=(1, 1), bias=False
              (norm): FrozenBatchNorm2d(num_features=1024, eps=1e-05)
            )
          )
          (4): BottleneckBlock(
            (conv1): Conv2d(
              1024, 256, kernel_size=(1, 1), stride=(1, 1), bias=False
              (norm): FrozenBatchNorm2d(num_features=256, eps=1e-05)
            )
            (conv2): Conv2d(
              256, 256, kernel_size=(3, 3), stride=(1, 1), padding=(1, 1), bias=False
              (norm): FrozenBatchNorm2d(num_features=256, eps=1e-05)
            )
            (conv3): Conv2d(
              256, 1024, kernel_size=(1, 1), stride=(1, 1), bias=False
              (norm): FrozenBatchNorm2d(num_features=1024, eps=1e-05)
            )
          )
          (5): BottleneckBlock(
            (conv1): Conv2d(
              1024, 256, kernel_size=(1, 1), stride=(1, 1), bias=False
              (norm): FrozenBatchNorm2d(num_features=256, eps=1e-05)
            )
            (conv2): Conv2d(
              256, 256, kernel_size=(3, 3), stride=(1, 1), padding=(1, 1), bias=False
              (norm): FrozenBatchNorm2d(num_features=256, eps=1e-05)
            )
            (conv3): Conv2d(
              256, 1024, kernel_size=(1, 1), stride=(1, 1), bias=False
              (norm): FrozenBatchNorm2d(num_features=1024, eps=1e-05)
            )
          )
        )
        (res5): Sequential(
          (0): BottleneckBlock(
            (shortcut): Conv2d(
              1024, 2048, kernel_size=(1, 1), stride=(2, 2), bias=False
              (norm): FrozenBatchNorm2d(num_features=2048, eps=1e-05)
            )
            (conv1): Conv2d(
              1024, 512, kernel_size=(1, 1), stride=(2, 2), bias=False
              (norm): FrozenBatchNorm2d(num_features=512, eps=1e-05)
            )
            (conv2): Conv2d(
              512, 512, kernel_size=(3, 3), stride=(1, 1), padding=(1, 1), bias=False
              (norm): FrozenBatchNorm2d(num_features=512, eps=1e-05)
            )
            (conv3): Conv2d(
              512, 2048, kernel_size=(1, 1), stride=(1, 1), bias=False
              (norm): FrozenBatchNorm2d(num_features=2048, eps=1e-05)
            )
          )
          (1): BottleneckBlock(
            (conv1): Conv2d(
              2048, 512, kernel_size=(1, 1), stride=(1, 1), bias=False
              (norm): FrozenBatchNorm2d(num_features=512, eps=1e-05)
            )
            (conv2): Conv2d(
              512, 512, kernel_size=(3, 3), stride=(1, 1), padding=(1, 1), bias=False
              (norm): FrozenBatchNorm2d(num_features=512, eps=1e-05)
            )
            (conv3): Conv2d(
              512, 2048, kernel_size=(1, 1), stride=(1, 1), bias=False
              (norm): FrozenBatchNorm2d(num_features=2048, eps=1e-05)
            )
          )
          (2): BottleneckBlock(
            (conv1): Conv2d(
              2048, 512, kernel_size=(1, 1), stride=(1, 1), bias=False
              (norm): FrozenBatchNorm2d(num_features=512, eps=1e-05)
            )
            (conv2): Conv2d(
              512, 512, kernel_size=(3, 3), stride=(1, 1), padding=(1, 1), bias=False
              (norm): FrozenBatchNorm2d(num_features=512, eps=1e-05)
            )
            (conv3): Conv2d(
              512, 2048, kernel_size=(1, 1), stride=(1, 1), bias=False
              (norm): FrozenBatchNorm2d(num_features=2048, eps=1e-05)
            )
          )
        )
      )
    )
    (proposal_generator): FCOS(
      (fcos_head): FCOSHead(
        (cls_tower): Sequential(
          (0): Conv2d(256, 256, kernel_size=(3, 3), stride=(1, 1), padding=(1, 1))
          (1): GroupNorm(32, 256, eps=1e-05, affine=True)
          (2): ReLU()
          (3): Conv2d(256, 256, kernel_size=(3, 3), stride=(1, 1), padding=(1, 1))
          (4): GroupNorm(32, 256, eps=1e-05, affine=True)
          (5): ReLU()
          (6): Conv2d(256, 256, kernel_size=(3, 3), stride=(1, 1), padding=(1, 1))
          (7): GroupNorm(32, 256, eps=1e-05, affine=True)
          (8): ReLU()
          (9): Conv2d(256, 256, kernel_size=(3, 3), stride=(1, 1), padding=(1, 1))
          (10): GroupNorm(32, 256, eps=1e-05, affine=True)
          (11): ReLU()
        )
        (bbox_tower): Sequential(
          (0): Conv2d(256, 256, kernel_size=(3, 3), stride=(1, 1), padding=(1, 1))
          (1): GroupNorm(32, 256, eps=1e-05, affine=True)
          (2): ReLU()
          (3): Conv2d(256, 256, kernel_size=(3, 3), stride=(1, 1), padding=(1, 1))
          (4): GroupNorm(32, 256, eps=1e-05, affine=True)
          (5): ReLU()
          (6): Conv2d(256, 256, kernel_size=(3, 3), stride=(1, 1), padding=(1, 1))
          (7): GroupNorm(32, 256, eps=1e-05, affine=True)
          (8): ReLU()
          (9): Conv2d(256, 256, kernel_size=(3, 3), stride=(1, 1), padding=(1, 1))
          (10): GroupNorm(32, 256, eps=1e-05, affine=True)
          (11): ReLU()
        )
        (share_tower): Sequential()
        (cls_logits): Conv2d(256, 80, kernel_size=(3, 3), stride=(1, 1), padding=(1, 1))
        (bbox_pred): Conv2d(256, 4, kernel_size=(3, 3), stride=(1, 1), padding=(1, 1))
        (ctrness): Conv2d(256, 1, kernel_size=(3, 3), stride=(1, 1), padding=(1, 1))
        (scales): ModuleList(
          (0): Scale()
          (1): Scale()
          (2): Scale()
          (3): Scale()
          (4): Scale()
        )
      )
      (fcos_outputs): FCOSOutputs(
        (loc_loss_func): IOULoss()
      )
    )
    (mask_head): DynamicMaskHead(
      (MSELoss): MSELoss()
    )
    (mask_branch): MaskBranch(
      (refine): ModuleList(
        (0): Sequential(
          (0): Conv2d(256, 128, kernel_size=(3, 3), stride=(1, 1), padding=(1, 1), bias=False)
          (1): BatchNorm2d(128, eps=1e-05, momentum=0.1, affine=True, track_running_stats=True)
          (2): ReLU(inplace=True)
        )
        (1): Sequential(
          (0): Conv2d(256, 128, kernel_size=(3, 3), stride=(1, 1), padding=(1, 1), bias=False)
          (1): BatchNorm2d(128, eps=1e-05, momentum=0.1, affine=True, track_running_stats=True)
          (2): ReLU(inplace=True)
        )
        (2): Sequential(
          (0): Conv2d(256, 128, kernel_size=(3, 3), stride=(1, 1), padding=(1, 1), bias=False)
          (1): BatchNorm2d(128, eps=1e-05, momentum=0.1, affine=True, track_running_stats=True)
          (2): ReLU(inplace=True)
        )
      )
      (tower): Sequential(
        (0): Sequential(
          (0): Conv2d(128, 128, kernel_size=(3, 3), stride=(1, 1), padding=(1, 1), bias=False)
          (1): BatchNorm2d(128, eps=1e-05, momentum=0.1, affine=True, track_running_stats=True)
          (2): ReLU(inplace=True)
        )
        (1): Sequential(
          (0): Conv2d(128, 128, kernel_size=(3, 3), stride=(1, 1), padding=(1, 1), bias=False)
          (1): BatchNorm2d(128, eps=1e-05, momentum=0.1, affine=True, track_running_stats=True)
          (2): ReLU(inplace=True)
        )
        (2): Sequential(
          (0): Conv2d(128, 128, kernel_size=(3, 3), stride=(1, 1), padding=(1, 1), bias=False)
          (1): BatchNorm2d(128, eps=1e-05, momentum=0.1, affine=True, track_running_stats=True)
          (2): ReLU(inplace=True)
        )
        (3): Sequential(
          (0): Conv2d(128, 128, kernel_size=(3, 3), stride=(1, 1), padding=(1, 1), bias=False)
          (1): BatchNorm2d(128, eps=1e-05, momentum=0.1, affine=True, track_running_stats=True)
          (2): ReLU(inplace=True)
        )
        (4): Conv2d(128, 16, kernel_size=(1, 1), stride=(1, 1))
      )
    )
    (controller): Conv2d(256, 233, kernel_size=(3, 3), stride=(1, 1), padding=(1, 1))
  )
  (student): CondInst(
    (backbone): FPN(
      (fpn_lateral3): Conv2d(512, 256, kernel_size=(1, 1), stride=(1, 1))
      (fpn_output3): Conv2d(256, 256, kernel_size=(3, 3), stride=(1, 1), padding=(1, 1))
      (fpn_lateral4): Conv2d(1024, 256, kernel_size=(1, 1), stride=(1, 1))
      (fpn_output4): Conv2d(256, 256, kernel_size=(3, 3), stride=(1, 1), padding=(1, 1))
      (fpn_lateral5): Conv2d(2048, 256, kernel_size=(1, 1), stride=(1, 1))
      (fpn_output5): Conv2d(256, 256, kernel_size=(3, 3), stride=(1, 1), padding=(1, 1))
      (top_block): LastLevelP6P7(
        (p6): Conv2d(256, 256, kernel_size=(3, 3), stride=(2, 2), padding=(1, 1))
        (p7): Conv2d(256, 256, kernel_size=(3, 3), stride=(2, 2), padding=(1, 1))
      )
      (bottom_up): ResNet(
        (stem): BasicStem(
          (conv1): Conv2d(
            3, 64, kernel_size=(7, 7), stride=(2, 2), padding=(3, 3), bias=False
            (norm): FrozenBatchNorm2d(num_features=64, eps=1e-05)
          )
        )
        (res2): Sequential(
          (0): BottleneckBlock(
            (shortcut): Conv2d(
              64, 256, kernel_size=(1, 1), stride=(1, 1), bias=False
              (norm): FrozenBatchNorm2d(num_features=256, eps=1e-05)
            )
            (conv1): Conv2d(
              64, 64, kernel_size=(1, 1), stride=(1, 1), bias=False
              (norm): FrozenBatchNorm2d(num_features=64, eps=1e-05)
            )
            (conv2): Conv2d(
              64, 64, kernel_size=(3, 3), stride=(1, 1), padding=(1, 1), bias=False
              (norm): FrozenBatchNorm2d(num_features=64, eps=1e-05)
            )
            (conv3): Conv2d(
              64, 256, kernel_size=(1, 1), stride=(1, 1), bias=False
              (norm): FrozenBatchNorm2d(num_features=256, eps=1e-05)
            )
          )
          (1): BottleneckBlock(
            (conv1): Conv2d(
              256, 64, kernel_size=(1, 1), stride=(1, 1), bias=False
              (norm): FrozenBatchNorm2d(num_features=64, eps=1e-05)
            )
            (conv2): Conv2d(
              64, 64, kernel_size=(3, 3), stride=(1, 1), padding=(1, 1), bias=False
              (norm): FrozenBatchNorm2d(num_features=64, eps=1e-05)
            )
            (conv3): Conv2d(
              64, 256, kernel_size=(1, 1), stride=(1, 1), bias=False
              (norm): FrozenBatchNorm2d(num_features=256, eps=1e-05)
            )
          )
          (2): BottleneckBlock(
            (conv1): Conv2d(
              256, 64, kernel_size=(1, 1), stride=(1, 1), bias=False
              (norm): FrozenBatchNorm2d(num_features=64, eps=1e-05)
            )
            (conv2): Conv2d(
              64, 64, kernel_size=(3, 3), stride=(1, 1), padding=(1, 1), bias=False
              (norm): FrozenBatchNorm2d(num_features=64, eps=1e-05)
            )
            (conv3): Conv2d(
              64, 256, kernel_size=(1, 1), stride=(1, 1), bias=False
              (norm): FrozenBatchNorm2d(num_features=256, eps=1e-05)
            )
          )
        )
        (res3): Sequential(
          (0): BottleneckBlock(
            (shortcut): Conv2d(
              256, 512, kernel_size=(1, 1), stride=(2, 2), bias=False
              (norm): FrozenBatchNorm2d(num_features=512, eps=1e-05)
            )
            (conv1): Conv2d(
              256, 128, kernel_size=(1, 1), stride=(2, 2), bias=False
              (norm): FrozenBatchNorm2d(num_features=128, eps=1e-05)
            )
            (conv2): Conv2d(
              128, 128, kernel_size=(3, 3), stride=(1, 1), padding=(1, 1), bias=False
              (norm): FrozenBatchNorm2d(num_features=128, eps=1e-05)
            )
            (conv3): Conv2d(
              128, 512, kernel_size=(1, 1), stride=(1, 1), bias=False
              (norm): FrozenBatchNorm2d(num_features=512, eps=1e-05)
            )
          )
          (1): BottleneckBlock(
            (conv1): Conv2d(
              512, 128, kernel_size=(1, 1), stride=(1, 1), bias=False
              (norm): FrozenBatchNorm2d(num_features=128, eps=1e-05)
            )
            (conv2): Conv2d(
              128, 128, kernel_size=(3, 3), stride=(1, 1), padding=(1, 1), bias=False
              (norm): FrozenBatchNorm2d(num_features=128, eps=1e-05)
            )
            (conv3): Conv2d(
              128, 512, kernel_size=(1, 1), stride=(1, 1), bias=False
              (norm): FrozenBatchNorm2d(num_features=512, eps=1e-05)
            )
          )
          (2): BottleneckBlock(
            (conv1): Conv2d(
              512, 128, kernel_size=(1, 1), stride=(1, 1), bias=False
              (norm): FrozenBatchNorm2d(num_features=128, eps=1e-05)
            )
            (conv2): Conv2d(
              128, 128, kernel_size=(3, 3), stride=(1, 1), padding=(1, 1), bias=False
              (norm): FrozenBatchNorm2d(num_features=128, eps=1e-05)
            )
            (conv3): Conv2d(
              128, 512, kernel_size=(1, 1), stride=(1, 1), bias=False
              (norm): FrozenBatchNorm2d(num_features=512, eps=1e-05)
            )
          )
          (3): BottleneckBlock(
            (conv1): Conv2d(
              512, 128, kernel_size=(1, 1), stride=(1, 1), bias=False
              (norm): FrozenBatchNorm2d(num_features=128, eps=1e-05)
            )
            (conv2): Conv2d(
              128, 128, kernel_size=(3, 3), stride=(1, 1), padding=(1, 1), bias=False
              (norm): FrozenBatchNorm2d(num_features=128, eps=1e-05)
            )
            (conv3): Conv2d(
              128, 512, kernel_size=(1, 1), stride=(1, 1), bias=False
              (norm): FrozenBatchNorm2d(num_features=512, eps=1e-05)
            )
          )
        )
        (res4): Sequential(
          (0): BottleneckBlock(
            (shortcut): Conv2d(
              512, 1024, kernel_size=(1, 1), stride=(2, 2), bias=False
              (norm): FrozenBatchNorm2d(num_features=1024, eps=1e-05)
            )
            (conv1): Conv2d(
              512, 256, kernel_size=(1, 1), stride=(2, 2), bias=False
              (norm): FrozenBatchNorm2d(num_features=256, eps=1e-05)
            )
            (conv2): Conv2d(
              256, 256, kernel_size=(3, 3), stride=(1, 1), padding=(1, 1), bias=False
              (norm): FrozenBatchNorm2d(num_features=256, eps=1e-05)
            )
            (conv3): Conv2d(
              256, 1024, kernel_size=(1, 1), stride=(1, 1), bias=False
              (norm): FrozenBatchNorm2d(num_features=1024, eps=1e-05)
            )
          )
          (1): BottleneckBlock(
            (conv1): Conv2d(
              1024, 256, kernel_size=(1, 1), stride=(1, 1), bias=False
              (norm): FrozenBatchNorm2d(num_features=256, eps=1e-05)
            )
            (conv2): Conv2d(
              256, 256, kernel_size=(3, 3), stride=(1, 1), padding=(1, 1), bias=False
              (norm): FrozenBatchNorm2d(num_features=256, eps=1e-05)
            )
            (conv3): Conv2d(
              256, 1024, kernel_size=(1, 1), stride=(1, 1), bias=False
              (norm): FrozenBatchNorm2d(num_features=1024, eps=1e-05)
            )
          )
          (2): BottleneckBlock(
            (conv1): Conv2d(
              1024, 256, kernel_size=(1, 1), stride=(1, 1), bias=False
              (norm): FrozenBatchNorm2d(num_features=256, eps=1e-05)
            )
            (conv2): Conv2d(
              256, 256, kernel_size=(3, 3), stride=(1, 1), padding=(1, 1), bias=False
              (norm): FrozenBatchNorm2d(num_features=256, eps=1e-05)
            )
            (conv3): Conv2d(
              256, 1024, kernel_size=(1, 1), stride=(1, 1), bias=False
              (norm): FrozenBatchNorm2d(num_features=1024, eps=1e-05)
            )
          )
          (3): BottleneckBlock(
            (conv1): Conv2d(
              1024, 256, kernel_size=(1, 1), stride=(1, 1), bias=False
              (norm): FrozenBatchNorm2d(num_features=256, eps=1e-05)
            )
            (conv2): Conv2d(
              256, 256, kernel_size=(3, 3), stride=(1, 1), padding=(1, 1), bias=False
              (norm): FrozenBatchNorm2d(num_features=256, eps=1e-05)
            )
            (conv3): Conv2d(
              256, 1024, kernel_size=(1, 1), stride=(1, 1), bias=False
              (norm): FrozenBatchNorm2d(num_features=1024, eps=1e-05)
            )
          )
          (4): BottleneckBlock(
            (conv1): Conv2d(
              1024, 256, kernel_size=(1, 1), stride=(1, 1), bias=False
              (norm): FrozenBatchNorm2d(num_features=256, eps=1e-05)
            )
            (conv2): Conv2d(
              256, 256, kernel_size=(3, 3), stride=(1, 1), padding=(1, 1), bias=False
              (norm): FrozenBatchNorm2d(num_features=256, eps=1e-05)
            )
            (conv3): Conv2d(
              256, 1024, kernel_size=(1, 1), stride=(1, 1), bias=False
              (norm): FrozenBatchNorm2d(num_features=1024, eps=1e-05)
            )
          )
          (5): BottleneckBlock(
            (conv1): Conv2d(
              1024, 256, kernel_size=(1, 1), stride=(1, 1), bias=False
              (norm): FrozenBatchNorm2d(num_features=256, eps=1e-05)
            )
            (conv2): Conv2d(
              256, 256, kernel_size=(3, 3), stride=(1, 1), padding=(1, 1), bias=False
              (norm): FrozenBatchNorm2d(num_features=256, eps=1e-05)
            )
            (conv3): Conv2d(
              256, 1024, kernel_size=(1, 1), stride=(1, 1), bias=False
              (norm): FrozenBatchNorm2d(num_features=1024, eps=1e-05)
            )
          )
        )
        (res5): Sequential(
          (0): BottleneckBlock(
            (shortcut): Conv2d(
              1024, 2048, kernel_size=(1, 1), stride=(2, 2), bias=False
              (norm): FrozenBatchNorm2d(num_features=2048, eps=1e-05)
            )
            (conv1): Conv2d(
              1024, 512, kernel_size=(1, 1), stride=(2, 2), bias=False
              (norm): FrozenBatchNorm2d(num_features=512, eps=1e-05)
            )
            (conv2): Conv2d(
              512, 512, kernel_size=(3, 3), stride=(1, 1), padding=(1, 1), bias=False
              (norm): FrozenBatchNorm2d(num_features=512, eps=1e-05)
            )
            (conv3): Conv2d(
              512, 2048, kernel_size=(1, 1), stride=(1, 1), bias=False
              (norm): FrozenBatchNorm2d(num_features=2048, eps=1e-05)
            )
          )
          (1): BottleneckBlock(
            (conv1): Conv2d(
              2048, 512, kernel_size=(1, 1), stride=(1, 1), bias=False
              (norm): FrozenBatchNorm2d(num_features=512, eps=1e-05)
            )
            (conv2): Conv2d(
              512, 512, kernel_size=(3, 3), stride=(1, 1), padding=(1, 1), bias=False
              (norm): FrozenBatchNorm2d(num_features=512, eps=1e-05)
            )
            (conv3): Conv2d(
              512, 2048, kernel_size=(1, 1), stride=(1, 1), bias=False
              (norm): FrozenBatchNorm2d(num_features=2048, eps=1e-05)
            )
          )
          (2): BottleneckBlock(
            (conv1): Conv2d(
              2048, 512, kernel_size=(1, 1), stride=(1, 1), bias=False
              (norm): FrozenBatchNorm2d(num_features=512, eps=1e-05)
            )
            (conv2): Conv2d(
              512, 512, kernel_size=(3, 3), stride=(1, 1), padding=(1, 1), bias=False
              (norm): FrozenBatchNorm2d(num_features=512, eps=1e-05)
            )
            (conv3): Conv2d(
              512, 2048, kernel_size=(1, 1), stride=(1, 1), bias=False
              (norm): FrozenBatchNorm2d(num_features=2048, eps=1e-05)
            )
          )
        )
      )
    )
    (proposal_generator): FCOS(
      (fcos_head): FCOSHead(
        (cls_tower): Sequential(
          (0): Conv2d(256, 256, kernel_size=(3, 3), stride=(1, 1), padding=(1, 1))
          (1): GroupNorm(32, 256, eps=1e-05, affine=True)
          (2): ReLU()
          (3): Conv2d(256, 256, kernel_size=(3, 3), stride=(1, 1), padding=(1, 1))
          (4): GroupNorm(32, 256, eps=1e-05, affine=True)
          (5): ReLU()
          (6): Conv2d(256, 256, kernel_size=(3, 3), stride=(1, 1), padding=(1, 1))
          (7): GroupNorm(32, 256, eps=1e-05, affine=True)
          (8): ReLU()
          (9): Conv2d(256, 256, kernel_size=(3, 3), stride=(1, 1), padding=(1, 1))
          (10): GroupNorm(32, 256, eps=1e-05, affine=True)
          (11): ReLU()
        )
        (bbox_tower): Sequential(
          (0): Conv2d(256, 256, kernel_size=(3, 3), stride=(1, 1), padding=(1, 1))
          (1): GroupNorm(32, 256, eps=1e-05, affine=True)
          (2): ReLU()
          (3): Conv2d(256, 256, kernel_size=(3, 3), stride=(1, 1), padding=(1, 1))
          (4): GroupNorm(32, 256, eps=1e-05, affine=True)
          (5): ReLU()
          (6): Conv2d(256, 256, kernel_size=(3, 3), stride=(1, 1), padding=(1, 1))
          (7): GroupNorm(32, 256, eps=1e-05, affine=True)
          (8): ReLU()
          (9): Conv2d(256, 256, kernel_size=(3, 3), stride=(1, 1), padding=(1, 1))
          (10): GroupNorm(32, 256, eps=1e-05, affine=True)
          (11): ReLU()
        )
        (share_tower): Sequential()
        (cls_logits): Conv2d(256, 80, kernel_size=(3, 3), stride=(1, 1), padding=(1, 1))
        (bbox_pred): Conv2d(256, 4, kernel_size=(3, 3), stride=(1, 1), padding=(1, 1))
        (ctrness): Conv2d(256, 1, kernel_size=(3, 3), stride=(1, 1), padding=(1, 1))
        (scales): ModuleList(
          (0): Scale()
          (1): Scale()
          (2): Scale()
          (3): Scale()
          (4): Scale()
        )
      )
      (fcos_outputs): FCOSOutputs(
        (loc_loss_func): IOULoss()
      )
    )
    (mask_head): DynamicMaskHead(
      (MSELoss): MSELoss()
    )
    (mask_branch): MaskBranch(
      (refine): ModuleList(
        (0): Sequential(
          (0): Conv2d(256, 128, kernel_size=(3, 3), stride=(1, 1), padding=(1, 1), bias=False)
          (1): BatchNorm2d(128, eps=1e-05, momentum=0.1, affine=True, track_running_stats=True)
          (2): ReLU(inplace=True)
        )
        (1): Sequential(
          (0): Conv2d(256, 128, kernel_size=(3, 3), stride=(1, 1), padding=(1, 1), bias=False)
          (1): BatchNorm2d(128, eps=1e-05, momentum=0.1, affine=True, track_running_stats=True)
          (2): ReLU(inplace=True)
        )
        (2): Sequential(
          (0): Conv2d(256, 128, kernel_size=(3, 3), stride=(1, 1), padding=(1, 1), bias=False)
          (1): BatchNorm2d(128, eps=1e-05, momentum=0.1, affine=True, track_running_stats=True)
          (2): ReLU(inplace=True)
        )
      )
      (tower): Sequential(
        (0): Sequential(
          (0): Conv2d(128, 128, kernel_size=(3, 3), stride=(1, 1), padding=(1, 1), bias=False)
          (1): BatchNorm2d(128, eps=1e-05, momentum=0.1, affine=True, track_running_stats=True)
          (2): ReLU(inplace=True)
        )
        (1): Sequential(
          (0): Conv2d(128, 128, kernel_size=(3, 3), stride=(1, 1), padding=(1, 1), bias=False)
          (1): BatchNorm2d(128, eps=1e-05, momentum=0.1, affine=True, track_running_stats=True)
          (2): ReLU(inplace=True)
        )
        (2): Sequential(
          (0): Conv2d(128, 128, kernel_size=(3, 3), stride=(1, 1), padding=(1, 1), bias=False)
          (1): BatchNorm2d(128, eps=1e-05, momentum=0.1, affine=True, track_running_stats=True)
          (2): ReLU(inplace=True)
        )
        (3): Sequential(
          (0): Conv2d(128, 128, kernel_size=(3, 3), stride=(1, 1), padding=(1, 1), bias=False)
          (1): BatchNorm2d(128, eps=1e-05, momentum=0.1, affine=True, track_running_stats=True)
          (2): ReLU(inplace=True)
        )
        (4): Conv2d(128, 16, kernel_size=(1, 1), stride=(1, 1))
      )
    )
    (controller): Conv2d(256, 233, kernel_size=(3, 3), stride=(1, 1), padding=(1, 1))
  )
)
[32m[06/24 17:07:47 d2.data.dataset_mapper]: [0m[DatasetMapper] Augmentations used in training: [ResizeShortestEdge(short_edge_length=(480, 512, 544, 576, 608, 640, 672, 704, 736, 768, 800), max_size=1333, sample_style='choice'), RandomFlip()]
[06/24 17:07:47] adet.data.detection_utils INFO: Augmentations used in training: [ResizeShortestEdge(short_edge_length=(480, 512, 544, 576, 608, 640, 672, 704, 736, 768, 800), max_size=1333, sample_style='choice'), RandomFlip()]
…
[38;5;15m    [39m[38;5;197mNUM_ITER[39m[38;5;15m:[39m[38;5;15m [39m[38;5;141m200[39m
[38;5;197mVERSION[39m[38;5;15m:[39m[38;5;15m [39m[38;5;141m2[39m
[38;5;197mVIS_PERIOD[39m[38;5;15m:[39m[38;5;15m [39m[38;5;141m0[39m

[32m[06/24 21:25:27 detectron2]: [0mFull config saved to /path/workspace/research/segmentation/BoxSeg/../BoxSeg_checkpoints/gavyn.voc.boxseg_r101_3x/test-dev/config.yaml
[32m[06/24 21:25:27 d2.utils.env]: [0mUsing a generated random seed 27532446
[32m[06/24 21:25:29 d2.engine.defaults]: [0mModel:
BoxSeg(
  (teacher): CondInst(
    (backbone): FPN(
      (fpn_lateral3): Conv2d(512, 256, kernel_size=(1, 1), stride=(1, 1))
      (fpn_output3): Conv2d(256, 256, kernel_size=(3, 3), stride=(1, 1), padding=(1, 1))
      (fpn_lateral4): Conv2d(1024, 256, kernel_size=(1, 1), stride=(1, 1))
      (fpn_output4): Conv2d(256, 256, kernel_size=(3, 3), stride=(1, 1), padding=(1, 1))
      (fpn_lateral5): Conv2d(2048, 256, kernel_size=(1, 1), stride=(1, 1))
      (fpn_output5): Conv2d(256, 256, kernel_size=(3, 3), stride=(1, 1), padding=(1, 1))
      (top_block): LastLevelP6P7(
        (p6): Conv2d(256, 256, kernel_size=(3, 3), stride=(2, 2), padding=(1, 1))
        (p7): Conv2d(256, 256, kernel_size=(3, 3), stride=(2, 2), padding=(1, 1))
      )
      (bottom_up): ResNet(
        (stem): BasicStem(
          (conv1): Conv2d(
            3, 64, kernel_size=(7, 7), stride=(2, 2), padding=(3, 3), bias=False
            (norm): FrozenBatchNorm2d(num_features=64, eps=1e-05)
          )
        )
        (res2): Sequential(
          (0): BottleneckBlock(
            (shortcut): Conv2d(
              64, 256, kernel_size=(1, 1), stride=(1, 1), bias=False
              (norm): FrozenBatchNorm2d(num_features=256, eps=1e-05)
            )
            (conv1): Conv2d(
              64, 64, kernel_size=(1, 1), stride=(1, 1), bias=False
              (norm): FrozenBatchNorm2d(num_features=64, eps=1e-05)
            )
            (conv2): Conv2d(
              64, 64, kernel_size=(3, 3), stride=(1, 1), padding=(1, 1), bias=False
              (norm): FrozenBatchNorm2d(num_features=64, eps=1e-05)
            )
            (conv3): Conv2d(
              64, 256, kernel_size=(1, 1), stride=(1, 1), bias=False
              (norm): FrozenBatchNorm2d(num_features=256, eps=1e-05)
            )
          )
          (1): BottleneckBlock(
            (conv1): Conv2d(
              256, 64, kernel_size=(1, 1), stride=(1, 1), bias=False
              (norm): FrozenBatchNorm2d(num_features=64, eps=1e-05)
            )
            (conv2): Conv2d(
              64, 64, kernel_size=(3, 3), stride=(1, 1), padding=(1, 1), bias=False
              (norm): FrozenBatchNorm2d(num_features=64, eps=1e-05)
            )
            (conv3): Conv2d(
              64, 256, kernel_size=(1, 1), stride=(1, 1), bias=False
              (norm): FrozenBatchNorm2d(num_features=256, eps=1e-05)
            )
          )
          (2): BottleneckBlock(
            (conv1): Conv2d(
              256, 64, kernel_size=(1, 1), stride=(1, 1), bias=False
              (norm): FrozenBatchNorm2d(num_features=64, eps=1e-05)
            )
            (conv2): Conv2d(
              64, 64, kernel_size=(3, 3), stride=(1, 1), padding=(1, 1), bias=False
              (norm): FrozenBatchNorm2d(num_features=64, eps=1e-05)
            )
            (conv3): Conv2d(
              64, 256, kernel_size=(1, 1), stride=(1, 1), bias=False
              (norm): FrozenBatchNorm2d(num_features=256, eps=1e-05)
            )
          )
        )
        (res3): Sequential(
          (0): BottleneckBlock(
            (shortcut): Conv2d(
              256, 512, kernel_size=(1, 1), stride=(2, 2), bias=False
              (norm): FrozenBatchNorm2d(num_features=512, eps=1e-05)
            )
            (conv1): Conv2d(
              256, 128, kernel_size=(1, 1), stride=(2, 2), bias=False
              (norm): FrozenBatchNorm2d(num_features=128, eps=1e-05)
            )
            (conv2): Conv2d(
              128, 128, kernel_size=(3, 3), stride=(1, 1), padding=(1, 1), bias=False
              (norm): FrozenBatchNorm2d(num_features=128, eps=1e-05)
            )
            (conv3): Conv2d(
              128, 512, kernel_size=(1, 1), stride=(1, 1), bias=False
              (norm): FrozenBatchNorm2d(num_features=512, eps=1e-05)
            )
          )
          (1): BottleneckBlock(
            (conv1): Conv2d(
              512, 128, kernel_size=(1, 1), stride=(1, 1), bias=False
              (norm): FrozenBatchNorm2d(num_features=128, eps=1e-05)
            )
            (conv2): Conv2d(
              128, 128, kernel_size=(3, 3), stride=(1, 1), padding=(1, 1), bias=False
              (norm): FrozenBatchNorm2d(num_features=128, eps=1e-05)
            )
            (conv3): Conv2d(
              128, 512, kernel_size=(1, 1), stride=(1, 1), bias=False
              (norm): FrozenBatchNorm2d(num_features=512, eps=1e-05)
            )
          )
          (2): BottleneckBlock(
            (conv1): Conv2d(
              512, 128, kernel_size=(1, 1), stride=(1, 1), bias=False
              (norm): FrozenBatchNorm2d(num_features=128, eps=1e-05)
            )
            (conv2): Conv2d(
              128, 128, kernel_size=(3, 3), stride=(1, 1), padding=(1, 1), bias=False
              (norm): FrozenBatchNorm2d(num_features=128, eps=1e-05)
            )
            (conv3): Conv2d(
              128, 512, kernel_size=(1, 1), stride=(1, 1), bias=False
              (norm): FrozenBatchNorm2d(num_features=512, eps=1e-05)
            )
          )
          (3): BottleneckBlock(
            (conv1): Conv2d(
              512, 128, kernel_size=(1, 1), stride=(1, 1), bias=False
              (norm): FrozenBatchNorm2d(num_features=128, eps=1e-05)
            )
            (conv2): Conv2d(
              128, 128, kernel_size=(3, 3), stride=(1, 1), padding=(1, 1), bias=False
              (norm): FrozenBatchNorm2d(num_features=128, eps=1e-05)
            )
            (conv3): Conv2d(
              128, 512, kernel_size=(1, 1), stride=(1, 1), bias=False
              (norm): FrozenBatchNorm2d(num_features=512, eps=1e-05)
            )
          )
        )
        (res4): Sequential(
          (0): BottleneckBlock(
            (shortcut): Conv2d(
              512, 1024, kernel_size=(1, 1), stride=(2, 2), bias=False
              (norm): FrozenBatchNorm2d(num_features=1024, eps=1e-05)
            )
            (conv1): Conv2d(
              512, 256, kernel_size=(1, 1), stride=(2, 2), bias=False
              (norm): FrozenBatchNorm2d(num_features=256, eps=1e-05)
            )
            (conv2): Conv2d(
              256, 256, kernel_size=(3, 3), stride=(1, 1), padding=(1, 1), bias=False
              (norm): FrozenBatchNorm2d(num_features=256, eps=1e-05)
            )
            (conv3): Conv2d(
              256, 1024, kernel_size=(1, 1), stride=(1, 1), bias=False
              (norm): FrozenBatchNorm2d(num_features=1024, eps=1e-05)
            )
          )
          (1): BottleneckBlock(
            (conv1): Conv2d(
              1024, 256, kernel_size=(1, 1), stride=(1, 1), bias=False
              (norm): FrozenBatchNorm2d(num_features=256, eps=1e-05)
            )
            (conv2): Conv2d(
              256, 256, kernel_size=(3, 3), stride=(1, 1), padding=(1, 1), bias=False
              (norm): FrozenBatchNorm2d(num_features=256, eps=1e-05)
            )
            (conv3): Conv2d(
              256, 1024, kernel_size=(1, 1), stride=(1, 1), bias=False
              (norm): FrozenBatchNorm2d(num_features=1024, eps=1e-05)
            )
          )
          (2): BottleneckBlock(
            (conv1): Conv2d(
              1024, 256, kernel_size=(1, 1), stride=(1, 1), bias=False
              (norm): FrozenBatchNorm2d(num_features=256, eps=1e-05)
            )
            (conv2): Conv2d(
              256, 256, kernel_size=(3, 3), stride=(1, 1), padding=(1, 1), bias=False
              (norm): FrozenBatchNorm2d(num_features=256, eps=1e-05)
            )
            (conv3): Conv2d(
              256, 1024, kernel_size=(1, 1), stride=(1, 1), bias=False
              (norm): FrozenBatchNorm2d(num_features=1024, eps=1e-05)
            )
          )
          (3): BottleneckBlock(
            (conv1): Conv2d(
              1024, 256, kernel_size=(1, 1), stride=(1, 1), bias=False
              (norm): FrozenBatchNorm2d(num_features=256, eps=1e-05)
            )
            (conv2): Conv2d(
              256, 256, kernel_size=(3, 3), stride=(1, 1), padding=(1, 1), bias=False
              (norm): FrozenBatchNorm2d(num_features=256, eps=1e-05)
            )
            (conv3): Conv2d(
              256, 1024, kernel_size=(1, 1), stride=(1, 1), bias=False
              (norm): FrozenBatchNorm2d(num_features=1024, eps=1e-05)
            )
          )
          (4): BottleneckBlock(
            (conv1): Conv2d(
              1024, 256, kernel_size=(1, 1), stride=(1, 1), bias=False
              (norm): FrozenBatchNorm2d(num_features=256, eps=1e-05)
            )
            (conv2): Conv2d(
              256, 256, kernel_size=(3, 3), stride=(1, 1), padding=(1, 1), bias=False
              (norm): FrozenBatchNorm2d(num_features=256, eps=1e-05)
            )
            (conv3): Conv2d(
              256, 1024, kernel_size=(1, 1), stride=(1, 1), bias=False
              (norm): FrozenBatchNorm2d(num_features=1024, eps=1e-05)
            )
          )
          (5): BottleneckBlock(
            (conv1): Conv2d(
              1024, 256, kernel_size=(1, 1), stride=(1, 1), bias=False
              (norm): FrozenBatchNorm2d(num_features=256, eps=1e-05)
            )
            (conv2): Conv2d(
              256, 256, kernel_size=(3, 3), stride=(1, 1), padding=(1, 1), bias=False
              (norm): FrozenBatchNorm2d(num_features=256, eps=1e-05)
            )
            (conv3): Conv2d(
              256, 1024, kernel_size=(1, 1), stride=(1, 1), bias=False
              (norm): FrozenBatchNorm2d(num_features=1024, eps=1e-05)
            )
          )
          (6): BottleneckBlock(
            (conv1): Conv2d(
              1024, 256, kernel_size=(1, 1), stride=(1, 1), bias=False
              (norm): FrozenBatchNorm2d(num_features=256, eps=1e-05)
            )
            (conv2): Conv2d(
              256, 256, kernel_size=(3, 3), stride=(1, 1), padding=(1, 1), bias=False
              (norm): FrozenBatchNorm2d(num_features=256, eps=1e-05)
            )
            (conv3): Conv2d(
              256, 1024, kernel_size=(1, 1), stride=(1, 1), bias=False
              (norm): FrozenBatchNorm2d(num_features=1024, eps=1e-05)
            )
          )
          (7): BottleneckBlock(
            (conv1): Conv2d(
              1024, 256, kernel_size=(1, 1), stride=(1, 1), bias=False
              (norm): FrozenBatchNorm2d(num_features=256, eps=1e-05)
            )
            (conv2): Conv2d(
              256, 256, kernel_size=(3, 3), stride=(1, 1), padding=(1, 1), bias=False
              (norm): FrozenBatchNorm2d(num_features=256, eps=1e-05)
            )
            (conv3): Conv2d(
              256, 1024, kernel_size=(1, 1), stride=(1, 1), bias=False
              (norm): FrozenBatchNorm2d(num_features=1024, eps=1e-05)
            )
          )
          (8): BottleneckBlock(
            (conv1): Conv2d(
              1024, 256, kernel_size=(1, 1), stride=(1, 1), bias=False
              (norm): FrozenBatchNorm2d(num_features=256, eps=1e-05)
            )
            (conv2): Conv2d(
              256, 256, kernel_size=(3, 3), stride=(1, 1), padding=(1, 1), bias=False
              (norm): FrozenBatchNorm2d(num_features=256, eps=1e-05)
            )
            (conv3): Conv2d(
              256, 1024, kernel_size=(1, 1), stride=(1, 1), bias=False
              (norm): FrozenBatchNorm2d(num_features=1024, eps=1e-05)
            )
          )
          (9): BottleneckBlock(
            (conv1): Conv2d(
              1024, 256, kernel_size=(1, 1), stride=(1, 1), bias=False
              (norm): FrozenBatchNorm2d(num_features=256, eps=1e-05)
            )
            (conv2): Conv2d(
              256, 256, kernel_size=(3, 3), stride=(1, 1), padding=(1, 1), bias=False
              (norm): FrozenBatchNorm2d(num_features=256, eps=1e-05)
            )
            (conv3): Conv2d(
              256, 1024, kernel_size=(1, 1), stride=(1, 1), bias=False
              (norm): FrozenBatchNorm2d(num_features=1024, eps=1e-05)
            )
          )
          (10): BottleneckBlock(
            (conv1): Conv2d(
              1024, 256, kernel_size=(1, 1), stride=(1, 1), bias=False
              (norm): FrozenBatchNorm2d(num_features=256, eps=1e-05)
            )
            (conv2): Conv2d(
              256, 256, kernel_size=(3, 3), stride=(1, 1), padding=(1, 1), bias=False
              (norm): FrozenBatchNorm2d(num_features=256, eps=1e-05)
            )
            (conv3): Conv2d(
              256, 1024, kernel_size=(1, 1), stride=(1, 1), bias=False
              (norm): FrozenBatchNorm2d(num_features=1024, eps=1e-05)
            )
          )
          (11): BottleneckBlock(
            (conv1): Conv2d(
              1024, 256, kernel_size=(1, 1), stride=(1, 1), bias=False
              (norm): FrozenBatchNorm2d(num_features=256, eps=1e-05)
            )
            (conv2): Conv2d(
              256, 256, kernel_size=(3, 3), stride=(1, 1), padding=(1, 1), bias=False
              (norm): FrozenBatchNorm2d(num_features=256, eps=1e-05)
            )
            (conv3): Conv2d(
              256, 1024, kernel_size=(1, 1), stride=(1, 1), bias=False
              (norm): FrozenBatchNorm2d(num_features=1024, eps=1e-05)
            )
          )
          (12): BottleneckBlock(
            (conv1): Conv2d(
              1024, 256, kernel_size=(1, 1), stride=(1, 1), bias=False
              (norm): FrozenBatchNorm2d(num_features=256, eps=1e-05)
            )
            (conv2): Conv2d(
              256, 256, kernel_size=(3, 3), stride=(1, 1), padding=(1, 1), bias=False
              (norm): FrozenBatchNorm2d(num_features=256, eps=1e-05)
            )
            (conv3): Conv2d(
              256, 1024, kernel_size=(1, 1), stride=(1, 1), bias=False
              (norm): FrozenBatchNorm2d(num_features=1024, eps=1e-05)
            )
          )
          (13): BottleneckBlock(
            (conv1): Conv2d(
              1024, 256, kernel_size=(1, 1), stride=(1, 1), bias=False
              (norm): FrozenBatchNorm2d(num_features=256, eps=1e-05)
            )
            (conv2): Conv2d(
              256, 256, kernel_size=(3, 3), stride=(1, 1), padding=(1, 1), bias=False
              (norm): FrozenBatchNorm2d(num_features=256, eps=1e-05)
            )
            (conv3): Conv2d(
              256, 1024, kernel_size=(1, 1), stride=(1, 1), bias=False
              (norm): FrozenBatchNorm2d(num_features=1024, eps=1e-05)
            )
          )
          (14): BottleneckBlock(
            (conv1): Conv2d(
              1024, 256, kernel_size=(1, 1), stride=(1, 1), bias=False
              (norm): FrozenBatchNorm2d(num_features=256, eps=1e-05)
            )
            (conv2): Conv2d(
              256, 256, kernel_size=(3, 3), stride=(1, 1), padding=(1, 1), bias=False
              (norm): FrozenBatchNorm2d(num_features=256, eps=1e-05)
            )
            (conv3): Conv2d(
              256, 1024, kernel_size=(1, 1), stride=(1, 1), bias=False
              (norm): FrozenBatchNorm2d(num_features=1024, eps=1e-05)
            )
          )
          (15): BottleneckBlock(
            (conv1): Conv2d(
              1024, 256, kernel_size=(1, 1), stride=(1, 1), bias=False
              (norm): FrozenBatchNorm2d(num_features=256, eps=1e-05)
            )
            (conv2): Conv2d(
              256, 256, kernel_size=(3, 3), stride=(1, 1), padding=(1, 1), bias=False
              (norm): FrozenBatchNorm2d(num_features=256, eps=1e-05)
            )
            (conv3): Conv2d(
              256, 1024, kernel_size=(1, 1), stride=(1, 1), bias=False
              (norm): FrozenBatchNorm2d(num_features=1024, eps=1e-05)
            )
          )
          (16): BottleneckBlock(
            (conv1): Conv2d(
              1024, 256, kernel_size=(1, 1), stride=(1, 1), bias=False
              (norm): FrozenBatchNorm2d(num_features=256, eps=1e-05)
            )
            (conv2): Conv2d(
              256, 256, kernel_size=(3, 3), stride=(1, 1), padding=(1, 1), bias=False
              (norm): FrozenBatchNorm2d(num_features=256, eps=1e-05)
            )
            (conv3): Conv2d(
              256, 1024, kernel_size=(1, 1), stride=(1, 1), bias=False
              (norm): FrozenBatchNorm2d(num_features=1024, eps=1e-05)
            )
          )
          (17): BottleneckBlock(
            (conv1): Conv2d(
              1024, 256, kernel_size=(1, 1), stride=(1, 1), bias=False
              (norm): FrozenBatchNorm2d(num_features=256, eps=1e-05)
            )
            (conv2): Conv2d(
              256, 256, kernel_size=(3, 3), stride=(1, 1), padding=(1, 1), bias=False
              (norm): FrozenBatchNorm2d(num_features=256, eps=1e-05)
            )
            (conv3): Conv2d(
              256, 1024, kernel_size=(1, 1), stride=(1, 1), bias=False
              (norm): FrozenBatchNorm2d(num_features=1024, eps=1e-05)
            )
          )
          (18): BottleneckBlock(
            (conv1): Conv2d(
              1024, 256, kernel_size=(1, 1), stride=(1, 1), bias=False
              (norm): FrozenBatchNorm2d(num_features=256, eps=1e-05)
            )
            (conv2): Conv2d(
              256, 256, kernel_size=(3, 3), stride=(1, 1), padding=(1, 1), bias=False
              (norm): FrozenBatchNorm2d(num_features=256, eps=1e-05)
            )
            (conv3): Conv2d(
              256, 1024, kernel_size=(1, 1), stride=(1, 1), bias=False
              (norm): FrozenBatchNorm2d(num_features=1024, eps=1e-05)
            )
          )
          (19): BottleneckBlock(
            (conv1): Conv2d(
              1024, 256, kernel_size=(1, 1), stride=(1, 1), bias=False
              (norm): FrozenBatchNorm2d(num_features=256, eps=1e-05)
            )
            (conv2): Conv2d(
              256, 256, kernel_size=(3, 3), stride=(1, 1), padding=(1, 1), bias=False
              (norm): FrozenBatchNorm2d(num_features=256, eps=1e-05)
            )
            (conv3): Conv2d(
              256, 1024, kernel_size=(1, 1), stride=(1, 1), bias=False
              (norm): FrozenBatchNorm2d(num_features=1024, eps=1e-05)
            )
          )
          (20): BottleneckBlock(
            (conv1): Conv2d(
              1024, 256, kernel_size=(1, 1), stride=(1, 1), bias=False
              (norm): FrozenBatchNorm2d(num_features=256, eps=1e-05)
            )
            (conv2): Conv2d(
              256, 256, kernel_size=(3, 3), stride=(1, 1), padding=(1, 1), bias=False
              (norm): FrozenBatchNorm2d(num_features=256, eps=1e-05)
            )
            (conv3): Conv2d(
              256, 1024, kernel_size=(1, 1), stride=(1, 1), bias=False
              (norm): FrozenBatchNorm2d(num_features=1024, eps=1e-05)
            )
          )
          (21): BottleneckBlock(
            (conv1): Conv2d(
              1024, 256, kernel_size=(1, 1), stride=(1, 1), bias=False
              (norm): FrozenBatchNorm2d(num_features=256, eps=1e-05)
            )
            (conv2): Conv2d(
              256, 256, kernel_size=(3, 3), stride=(1, 1), padding=(1, 1), bias=False
              (norm): FrozenBatchNorm2d(num_features=256, eps=1e-05)
            )
            (conv3): Conv2d(
              256, 1024, kernel_size=(1, 1), stride=(1, 1), bias=False
              (norm): FrozenBatchNorm2d(num_features=1024, eps=1e-05)
            )
          )
          (22): BottleneckBlock(
            (conv1): Conv2d(
              1024, 256, kernel_size=(1, 1), stride=(1, 1), bias=False
              (norm): FrozenBatchNorm2d(num_features=256, eps=1e-05)
            )
            (conv2): Conv2d(
              256, 256, kernel_size=(3, 3), stride=(1, 1), padding=(1, 1), bias=False
              (norm): FrozenBatchNorm2d(num_features=256, eps=1e-05)
            )
            (conv3): Conv2d(
              256, 1024, kernel_size=(1, 1), stride=(1, 1), bias=False
              (norm): FrozenBatchNorm2d(num_features=1024, eps=1e-05)
            )
          )
        )
        (res5): Sequential(
          (0): BottleneckBlock(
            (shortcut): Conv2d(
              1024, 2048, kernel_size=(1, 1), stride=(2, 2), bias=False
              (norm): FrozenBatchNorm2d(num_features=2048, eps=1e-05)
            )
            (conv1): Conv2d(
              1024, 512, kernel_size=(1, 1), stride=(2, 2), bias=False
              (norm): FrozenBatchNorm2d(num_features=512, eps=1e-05)
            )
            (conv2): Conv2d(
              512, 512, kernel_size=(3, 3), stride=(1, 1), padding=(1, 1), bias=False
              (norm): FrozenBatchNorm2d(num_features=512, eps=1e-05)
            )
            (conv3): Conv2d(
              512, 2048, kernel_size=(1, 1), stride=(1, 1), bias=False
              (norm): FrozenBatchNorm2d(num_features=2048, eps=1e-05)
            )
          )
          (1): BottleneckBlock(
            (conv1): Conv2d(
              2048, 512, kernel_size=(1, 1), stride=(1, 1), bias=False
              (norm): FrozenBatchNorm2d(num_features=512, eps=1e-05)
            )
            (conv2): Conv2d(
              512, 512, kernel_size=(3, 3), stride=(1, 1), padding=(1, 1), bias=False
              (norm): FrozenBatchNorm2d(num_features=512, eps=1e-05)
            )
            (conv3): Conv2d(
              512, 2048, kernel_size=(1, 1), stride=(1, 1), bias=False
              (norm): FrozenBatchNorm2d(num_features=2048, eps=1e-05)
            )
          )
          (2): BottleneckBlock(
            (conv1): Conv2d(
              2048, 512, kernel_size=(1, 1), stride=(1, 1), bias=False
              (norm): FrozenBatchNorm2d(num_features=512, eps=1e-05)
            )
            (conv2): Conv2d(
              512, 512, kernel_size=(3, 3), stride=(1, 1), padding=(1, 1), bias=False
              (norm): FrozenBatchNorm2d(num_features=512, eps=1e-05)
            )
            (conv3): Conv2d(
              512, 2048, kernel_size=(1, 1), stride=(1, 1), bias=False
              (norm): FrozenBatchNorm2d(num_features=2048, eps=1e-05)
            )
          )
        )
      )
    )
    (proposal_generator): FCOS(
      (fcos_head): FCOSHead(
        (cls_tower): Sequential(
          (0): Conv2d(256, 256, kernel_size=(3, 3), stride=(1, 1), padding=(1, 1))
          (1): GroupNorm(32, 256, eps=1e-05, affine=True)
          (2): ReLU()
          (3): Conv2d(256, 256, kernel_size=(3, 3), stride=(1, 1), padding=(1, 1))
          (4): GroupNorm(32, 256, eps=1e-05, affine=True)
          (5): ReLU()
          (6): Conv2d(256, 256, kernel_size=(3, 3), stride=(1, 1), padding=(1, 1))
          (7): GroupNorm(32, 256, eps=1e-05, affine=True)
          (8): ReLU()
          (9): Conv2d(256, 256, kernel_size=(3, 3), stride=(1, 1), padding=(1, 1))
          (10): GroupNorm(32, 256, eps=1e-05, affine=True)
          (11): ReLU()
        )
        (bbox_tower): Sequential(
          (0): Conv2d(256, 256, kernel_size=(3, 3), stride=(1, 1), padding=(1, 1))
          (1): GroupNorm(32, 256, eps=1e-05, affine=True)
          (2): ReLU()
          (3): Conv2d(256, 256, kernel_size=(3, 3), stride=(1, 1), padding=(1, 1))
          (4): GroupNorm(32, 256, eps=1e-05, affine=True)
          (5): ReLU()
          (6): Conv2d(256, 256, kernel_size=(3, 3), stride=(1, 1), padding=(1, 1))
          (7): GroupNorm(32, 256, eps=1e-05, affine=True)
          (8): ReLU()
          (9): Conv2d(256, 256, kernel_size=(3, 3), stride=(1, 1), padding=(1, 1))
          (10): GroupNorm(32, 256, eps=1e-05, affine=True)
          (11): ReLU()
        )
        (share_tower): Sequential()
        (cls_logits): Conv2d(256, 80, kernel_size=(3, 3), stride=(1, 1), padding=(1, 1))
        (bbox_pred): Conv2d(256, 4, kernel_size=(3, 3), stride=(1, 1), padding=(1, 1))
        (ctrness): Conv2d(256, 1, kernel_size=(3, 3), stride=(1, 1), padding=(1, 1))
        (scales): ModuleList(
          (0): Scale()
          (1): Scale()
          (2): Scale()
          (3): Scale()
          (4): Scale()
        )
      )
      (fcos_outputs): FCOSOutputs(
        (loc_loss_func): IOULoss()
      )
    )
    (mask_head): DynamicMaskHead(
      (MSELoss): MSELoss()
    )
    (mask_branch): MaskBranch(
      (refine): ModuleList(
        (0): Sequential(
          (0): Conv2d(256, 128, kernel_size=(3, 3), stride=(1, 1), padding=(1, 1), bias=False)
          (1): BatchNorm2d(128, eps=1e-05, momentum=0.1, affine=True, track_running_stats=True)
          (2): ReLU(inplace=True)
        )
        (1): Sequential(
          (0): Conv2d(256, 128, kernel_size=(3, 3), stride=(1, 1), padding=(1, 1), bias=False)
          (1): BatchNorm2d(128, eps=1e-05, momentum=0.1, affine=True, track_running_stats=True)
          (2): ReLU(inplace=True)
        )
        (2): Sequential(
          (0): Conv2d(256, 128, kernel_size=(3, 3), stride=(1, 1), padding=(1, 1), bias=False)
          (1): BatchNorm2d(128, eps=1e-05, momentum=0.1, affine=True, track_running_stats=True)
          (2): ReLU(inplace=True)
        )
      )
      (tower): Sequential(
        (0): Sequential(
          (0): Conv2d(128, 128, kernel_size=(3, 3), stride=(1, 1), padding=(1, 1), bias=False)
          (1): BatchNorm2d(128, eps=1e-05, momentum=0.1, affine=True, track_running_stats=True)
          (2): ReLU(inplace=True)
        )
        (1): Sequential(
          (0): Conv2d(128, 128, kernel_size=(3, 3), stride=(1, 1), padding=(1, 1), bias=False)
          (1): BatchNorm2d(128, eps=1e-05, momentum=0.1, affine=True, track_running_stats=True)
          (2): ReLU(inplace=True)
        )
        (2): Sequential(
          (0): Conv2d(128, 128, kernel_size=(3, 3), stride=(1, 1), padding=(1, 1), bias=False)
          (1): BatchNorm2d(128, eps=1e-05, momentum=0.1, affine=True, track_running_stats=True)
          (2): ReLU(inplace=True)
        )
        (3): Sequential(
          (0): Conv2d(128, 128, kernel_size=(3, 3), stride=(1, 1), padding=(1, 1), bias=False)
          (1): BatchNorm2d(128, eps=1e-05, momentum=0.1, affine=True, track_running_stats=True)
          (2): ReLU(inplace=True)
        )
        (4): Conv2d(128, 16, kernel_size=(1, 1), stride=(1, 1))
      )
    )
    (controller): Conv2d(256, 233, kernel_size=(3, 3), stride=(1, 1), padding=(1, 1))
  )
  (student): CondInst(
    (backbone): FPN(
      (fpn_lateral3): Conv2d(512, 256, kernel_size=(1, 1), stride=(1, 1))
      (fpn_output3): Conv2d(256, 256, kernel_size=(3, 3), stride=(1, 1), padding=(1, 1))
      (fpn_lateral4): Conv2d(1024, 256, kernel_size=(1, 1), stride=(1, 1))
      (fpn_output4): Conv2d(256, 256, kernel_size=(3, 3), stride=(1, 1), padding=(1, 1))
      (fpn_lateral5): Conv2d(2048, 256, kernel_size=(1, 1), stride=(1, 1))
      (fpn_output5): Conv2d(256, 256, kernel_size=(3, 3), stride=(1, 1), padding=(1, 1))
      (top_block): LastLevelP6P7(
        (p6): Conv2d(256, 256, kernel_size=(3, 3), stride=(2, 2), padding=(1, 1))
        (p7): Conv2d(256, 256, kernel_size=(3, 3), stride=(2, 2), padding=(1, 1))
      )
      (bottom_up): ResNet(
        (stem): BasicStem(
          (conv1): Conv2d(
            3, 64, kernel_size=(7, 7), stride=(2, 2), padding=(3, 3), bias=False
            (norm): FrozenBatchNorm2d(num_features=64, eps=1e-05)
          )
        )
        (res2): Sequential(
          (0): BottleneckBlock(
            (shortcut): Conv2d(
              64, 256, kernel_size=(1, 1), stride=(1, 1), bias=False
              (norm): FrozenBatchNorm2d(num_features=256, eps=1e-05)
            )
            (conv1): Conv2d(
              64, 64, kernel_size=(1, 1), stride=(1, 1), bias=False
              (norm): FrozenBatchNorm2d(num_features=64, eps=1e-05)
            )
            (conv2): Conv2d(
              64, 64, kernel_size=(3, 3), stride=(1, 1), padding=(1, 1), bias=False
              (norm): FrozenBatchNorm2d(num_features=64, eps=1e-05)
            )
            (conv3): Conv2d(
              64, 256, kernel_size=(1, 1), stride=(1, 1), bias=False
              (norm): FrozenBatchNorm2d(num_features=256, eps=1e-05)
            )
          )
          (1): BottleneckBlock(
            (conv1): Conv2d(
              256, 64, kernel_size=(1, 1), stride=(1, 1), bias=False
              (norm): FrozenBatchNorm2d(num_features=64, eps=1e-05)
            )
            (conv2): Conv2d(
              64, 64, kernel_size=(3, 3), stride=(1, 1), padding=(1, 1), bias=False
              (norm): FrozenBatchNorm2d(num_features=64, eps=1e-05)
            )
            (conv3): Conv2d(
              64, 256, kernel_size=(1, 1), stride=(1, 1), bias=False
              (norm): FrozenBatchNorm2d(num_features=256, eps=1e-05)
            )
          )
          (2): BottleneckBlock(
            (conv1): Conv2d(
              256, 64, kernel_size=(1, 1), stride=(1, 1), bias=False
              (norm): FrozenBatchNorm2d(num_features=64, eps=1e-05)
            )
            (conv2): Conv2d(
              64, 64, kernel_size=(3, 3), stride=(1, 1), padding=(1, 1), bias=False
              (norm): FrozenBatchNorm2d(num_features=64, eps=1e-05)
            )
            (conv3): Conv2d(
              64, 256, kernel_size=(1, 1), stride=(1, 1), bias=False
              (norm): FrozenBatchNorm2d(num_features=256, eps=1e-05)
            )
          )
        )
        (res3): Sequential(
          (0): BottleneckBlock(
            (shortcut): Conv2d(
              256, 512, kernel_size=(1, 1), stride=(2, 2), bias=False
              (norm): FrozenBatchNorm2d(num_features=512, eps=1e-05)
            )
            (conv1): Conv2d(
              256, 128, kernel_size=(1, 1), stride=(2, 2), bias=False
              (norm): FrozenBatchNorm2d(num_features=128, eps=1e-05)
            )
            (conv2): Conv2d(
              128, 128, kernel_size=(3, 3), stride=(1, 1), padding=(1, 1), bias=False
              (norm): FrozenBatchNorm2d(num_features=128, eps=1e-05)
            )
            (conv3): Conv2d(
              128, 512, kernel_size=(1, 1), stride=(1, 1), bias=False
              (norm): FrozenBatchNorm2d(num_features=512, eps=1e-05)
            )
          )
          (1): BottleneckBlock(
            (conv1): Conv2d(
              512, 128, kernel_size=(1, 1), stride=(1, 1), bias=False
              (norm): FrozenBatchNorm2d(num_features=128, eps=1e-05)
            )
            (conv2): Conv2d(
              128, 128, kernel_size=(3, 3), stride=(1, 1), padding=(1, 1), bias=False
              (norm): FrozenBatchNorm2d(num_features=128, eps=1e-05)
            )
            (conv3): Conv2d(
              128, 512, kernel_size=(1, 1), stride=(1, 1), bias=False
              (norm): FrozenBatchNorm2d(num_features=512, eps=1e-05)
            )
          )
          (2): BottleneckBlock(
            (conv1): Conv2d(
              512, 128, kernel_size=(1, 1), stride=(1, 1), bias=False
              (norm): FrozenBatchNorm2d(num_features=128, eps=1e-05)
            )
            (conv2): Conv2d(
              128, 128, kernel_size=(3, 3), stride=(1, 1), padding=(1, 1), bias=False
              (norm): FrozenBatchNorm2d(num_features=128, eps=1e-05)
            )
            (conv3): Conv2d(
              128, 512, kernel_size=(1, 1), stride=(1, 1), bias=False
              (norm): FrozenBatchNorm2d(num_features=512, eps=1e-05)
            )
          )
          (3): BottleneckBlock(
            (conv1): Conv2d(
              512, 128, kernel_size=(1, 1), stride=(1, 1), bias=False
              (norm): FrozenBatchNorm2d(num_features=128, eps=1e-05)
            )
            (conv2): Conv2d(
              128, 128, kernel_size=(3, 3), stride=(1, 1), padding=(1, 1), bias=False
              (norm): FrozenBatchNorm2d(num_features=128, eps=1e-05)
            )
            (conv3): Conv2d(
              128, 512, kernel_size=(1, 1), stride=(1, 1), bias=False
              (norm): FrozenBatchNorm2d(num_features=512, eps=1e-05)
            )
          )
        )
        (res4): Sequential(
          (0): BottleneckBlock(
            (shortcut): Conv2d(
              512, 1024, kernel_size=(1, 1), stride=(2, 2), bias=False
              (norm): FrozenBatchNorm2d(num_features=1024, eps=1e-05)
            )
            (conv1): Conv2d(
              512, 256, kernel_size=(1, 1), stride=(2, 2), bias=False
              (norm): FrozenBatchNorm2d(num_features=256, eps=1e-05)
            )
            (conv2): Conv2d(
              256, 256, kernel_size=(3, 3), stride=(1, 1), padding=(1, 1), bias=False
              (norm): FrozenBatchNorm2d(num_features=256, eps=1e-05)
            )
            (conv3): Conv2d(
              256, 1024, kernel_size=(1, 1), stride=(1, 1), bias=False
              (norm): FrozenBatchNorm2d(num_features=1024, eps=1e-05)
            )
          )
          (1): BottleneckBlock(
            (conv1): Conv2d(
              1024, 256, kernel_size=(1, 1), stride=(1, 1), bias=False
              (norm): FrozenBatchNorm2d(num_features=256, eps=1e-05)
            )
            (conv2): Conv2d(
              256, 256, kernel_size=(3, 3), stride=(1, 1), padding=(1, 1), bias=False
              (norm): FrozenBatchNorm2d(num_features=256, eps=1e-05)
            )
            (conv3): Conv2d(
              256, 1024, kernel_size=(1, 1), stride=(1, 1), bias=False
              (norm): FrozenBatchNorm2d(num_features=1024, eps=1e-05)
            )
          )
          (2): BottleneckBlock(
            (conv1): Conv2d(
              1024, 256, kernel_size=(1, 1), stride=(1, 1), bias=False
              (norm): FrozenBatchNorm2d(num_features=256, eps=1e-05)
            )
            (conv2): Conv2d(
              256, 256, kernel_size=(3, 3), stride=(1, 1), padding=(1, 1), bias=False
              (norm): FrozenBatchNorm2d(num_features=256, eps=1e-05)
            )
            (conv3): Conv2d(
              256, 1024, kernel_size=(1, 1), stride=(1, 1), bias=False
              (norm): FrozenBatchNorm2d(num_features=1024, eps=1e-05)
            )
          )
          (3): BottleneckBlock(
            (conv1): Conv2d(
              1024, 256, kernel_size=(1, 1), stride=(1, 1), bias=False
              (norm): FrozenBatchNorm2d(num_features=256, eps=1e-05)
            )
            (conv2): Conv2d(
              256, 256, kernel_size=(3, 3), stride=(1, 1), padding=(1, 1), bias=False
              (norm): FrozenBatchNorm2d(num_features=256, eps=1e-05)
            )
            (conv3): Conv2d(
              256, 1024, kernel_size=(1, 1), stride=(1, 1), bias=False
              (norm): FrozenBatchNorm2d(num_features=1024, eps=1e-05)
            )
          )
          (4): BottleneckBlock(
            (conv1): Conv2d(
              1024, 256, kernel_size=(1, 1), stride=(1, 1), bias=False
              (norm): FrozenBatchNorm2d(num_features=256, eps=1e-05)
            )
            (conv2): Conv2d(
              256, 256, kernel_size=(3, 3), stride=(1, 1), padding=(1, 1), bias=False
              (norm): FrozenBatchNorm2d(num_features=256, eps=1e-05)
            )
            (conv3): Conv2d(
              256, 1024, kernel_size=(1, 1), stride=(1, 1), bias=False
              (norm): FrozenBatchNorm2d(num_features=1024, eps=1e-05)
            )
          )
          (5): BottleneckBlock(
            (conv1): Conv2d(
              1024, 256, kernel_size=(1, 1), stride=(1, 1), bias=False
              (norm): FrozenBatchNorm2d(num_features=256, eps=1e-05)
            )
            (conv2): Conv2d(
              256, 256, kernel_size=(3, 3), stride=(1, 1), padding=(1, 1), bias=False
              (norm): FrozenBatchNorm2d(num_features=256, eps=1e-05)
            )
            (conv3): Conv2d(
              256, 1024, kernel_size=(1, 1), stride=(1, 1), bias=False
              (norm): FrozenBatchNorm2d(num_features=1024, eps=1e-05)
            )
          )
          (6): BottleneckBlock(
            (conv1): Conv2d(
              1024, 256, kernel_size=(1, 1), stride=(1, 1), bias=False
              (norm): FrozenBatchNorm2d(num_features=256, eps=1e-05)
            )
            (conv2): Conv2d(
              256, 256, kernel_size=(3, 3), stride=(1, 1), padding=(1, 1), bias=False
              (norm): FrozenBatchNorm2d(num_features=256, eps=1e-05)
            )
            (conv3): Conv2d(
              256, 1024, kernel_size=(1, 1), stride=(1, 1), bias=False
              (norm): FrozenBatchNorm2d(num_features=1024, eps=1e-05)
            )
          )
          (7): BottleneckBlock(
            (conv1): Conv2d(
              1024, 256, kernel_size=(1, 1), stride=(1, 1), bias=False
              (norm): FrozenBatchNorm2d(num_features=256, eps=1e-05)
            )
            (conv2): Conv2d(
              256, 256, kernel_size=(3, 3), stride=(1, 1), padding=(1, 1), bias=False
              (norm): FrozenBatchNorm2d(num_features=256, eps=1e-05)
            )
            (conv3): Conv2d(
              256, 1024, kernel_size=(1, 1), stride=(1, 1), bias=False
              (norm): FrozenBatchNorm2d(num_features=1024, eps=1e-05)
            )
          )
          (8): BottleneckBlock(
            (conv1): Conv2d(
              1024, 256, kernel_size=(1, 1), stride=(1, 1), bias=False
              (norm): FrozenBatchNorm2d(num_features=256, eps=1e-05)
            )
            (conv2): Conv2d(
              256, 256, kernel_size=(3, 3), stride=(1, 1), padding=(1, 1), bias=False
              (norm): FrozenBatchNorm2d(num_features=256, eps=1e-05)
            )
            (conv3): Conv2d(
              256, 1024, kernel_size=(1, 1), stride=(1, 1), bias=False
              (norm): FrozenBatchNorm2d(num_features=1024, eps=1e-05)
            )
          )
          (9): BottleneckBlock(
            (conv1): Conv2d(
              1024, 256, kernel_size=(1, 1), stride=(1, 1), bias=False
              (norm): FrozenBatchNorm2d(num_features=256, eps=1e-05)
            )
            (conv2): Conv2d(
              256, 256, kernel_size=(3, 3), stride=(1, 1), padding=(1, 1), bias=False
              (norm): FrozenBatchNorm2d(num_features=256, eps=1e-05)
            )
            (conv3): Conv2d(
              256, 1024, kernel_size=(1, 1), stride=(1, 1), bias=False
              (norm): FrozenBatchNorm2d(num_features=1024, eps=1e-05)
            )
          )
          (10): BottleneckBlock(
            (conv1): Conv2d(
              1024, 256, kernel_size=(1, 1), stride=(1, 1), bias=False
              (norm): FrozenBatchNorm2d(num_features=256, eps=1e-05)
            )
            (conv2): Conv2d(
              256, 256, kernel_size=(3, 3), stride=(1, 1), padding=(1, 1), bias=False
              (norm): FrozenBatchNorm2d(num_features=256, eps=1e-05)
            )
            (conv3): Conv2d(
              256, 1024, kernel_size=(1, 1), stride=(1, 1), bias=False
              (norm): FrozenBatchNorm2d(num_features=1024, eps=1e-05)
            )
          )
          (11): BottleneckBlock(
            (conv1): Conv2d(
              1024, 256, kernel_size=(1, 1), stride=(1, 1), bias=False
              (norm): FrozenBatchNorm2d(num_features=256, eps=1e-05)
            )
            (conv2): Conv2d(
              256, 256, kernel_size=(3, 3), stride=(1, 1), padding=(1, 1), bias=False
              (norm): FrozenBatchNorm2d(num_features=256, eps=1e-05)
            )
            (conv3): Conv2d(
              256, 1024, kernel_size=(1, 1), stride=(1, 1), bias=False
              (norm): FrozenBatchNorm2d(num_features=1024, eps=1e-05)
            )
          )
          (12): BottleneckBlock(
            (conv1): Conv2d(
              1024, 256, kernel_size=(1, 1), stride=(1, 1), bias=False
              (norm): FrozenBatchNorm2d(num_features=256, eps=1e-05)
            )
            (conv2): Conv2d(
              256, 256, kernel_size=(3, 3), stride=(1, 1), padding=(1, 1), bias=False
              (norm): FrozenBatchNorm2d(num_features=256, eps=1e-05)
            )
            (conv3): Conv2d(
              256, 1024, kernel_size=(1, 1), stride=(1, 1), bias=False
              (norm): FrozenBatchNorm2d(num_features=1024, eps=1e-05)
            )
          )
          (13): BottleneckBlock(
            (conv1): Conv2d(
              1024, 256, kernel_size=(1, 1), stride=(1, 1), bias=False
              (norm): FrozenBatchNorm2d(num_features=256, eps=1e-05)
            )
            (conv2): Conv2d(
              256, 256, kernel_size=(3, 3), stride=(1, 1), padding=(1, 1), bias=False
              (norm): FrozenBatchNorm2d(num_features=256, eps=1e-05)
            )
            (conv3): Conv2d(
              256, 1024, kernel_size=(1, 1), stride=(1, 1), bias=False
              (norm): FrozenBatchNorm2d(num_features=1024, eps=1e-05)
            )
          )
          (14): BottleneckBlock(
            (conv1): Conv2d(
              1024, 256, kernel_size=(1, 1), stride=(1, 1), bias=False
              (norm): FrozenBatchNorm2d(num_features=256, eps=1e-05)
            )
            (conv2): Conv2d(
              256, 256, kernel_size=(3, 3), stride=(1, 1), padding=(1, 1), bias=False
              (norm): FrozenBatchNorm2d(num_features=256, eps=1e-05)
            )
            (conv3): Conv2d(
              256, 1024, kernel_size=(1, 1), stride=(1, 1), bias=False
              (norm): FrozenBatchNorm2d(num_features=1024, eps=1e-05)
            )
          )
          (15): BottleneckBlock(
            (conv1): Conv2d(
              1024, 256, kernel_size=(1, 1), stride=(1, 1), bias=False
              (norm): FrozenBatchNorm2d(num_features=256, eps=1e-05)
            )
            (conv2): Conv2d(
              256, 256, kernel_size=(3, 3), stride=(1, 1), padding=(1, 1), bias=False
              (norm): FrozenBatchNorm2d(num_features=256, eps=1e-05)
            )
            (conv3): Conv2d(
              256, 1024, kernel_size=(1, 1), stride=(1, 1), bias=False
              (norm): FrozenBatchNorm2d(num_features=1024, eps=1e-05)
            )
          )
          (16): BottleneckBlock(
            (conv1): Conv2d(
              1024, 256, kernel_size=(1, 1), stride=(1, 1), bias=False
              (norm): FrozenBatchNorm2d(num_features=256, eps=1e-05)
            )
            (conv2): Conv2d(
              256, 256, kernel_size=(3, 3), stride=(1, 1), padding=(1, 1), bias=False
              (norm): FrozenBatchNorm2d(num_features=256, eps=1e-05)
            )
            (conv3): Conv2d(
              256, 1024, kernel_size=(1, 1), stride=(1, 1), bias=False
              (norm): FrozenBatchNorm2d(num_features=1024, eps=1e-05)
            )
          )
          (17): BottleneckBlock(
            (conv1): Conv2d(
              1024, 256, kernel_size=(1, 1), stride=(1, 1), bias=False
              (norm): FrozenBatchNorm2d(num_features=256, eps=1e-05)
            )
            (conv2): Conv2d(
              256, 256, kernel_size=(3, 3), stride=(1, 1), padding=(1, 1), bias=False
              (norm): FrozenBatchNorm2d(num_features=256, eps=1e-05)
            )
            (conv3): Conv2d(
              256, 1024, kernel_size=(1, 1), stride=(1, 1), bias=False
              (norm): FrozenBatchNorm2d(num_features=1024, eps=1e-05)
            )
          )
          (18): BottleneckBlock(
            (conv1): Conv2d(
              1024, 256, kernel_size=(1, 1), stride=(1, 1), bias=False
              (norm): FrozenBatchNorm2d(num_features=256, eps=1e-05)
            )
            (conv2): Conv2d(
              256, 256, kernel_size=(3, 3), stride=(1, 1), padding=(1, 1), bias=False
              (norm): FrozenBatchNorm2d(num_features=256, eps=1e-05)
            )
            (conv3): Conv2d(
              256, 1024, kernel_size=(1, 1), stride=(1, 1), bias=False
              (norm): FrozenBatchNorm2d(num_features=1024, eps=1e-05)
            )
          )
          (19): BottleneckBlock(
            (conv1): Conv2d(
              1024, 256, kernel_size=(1, 1), stride=(1, 1), bias=False
              (norm): FrozenBatchNorm2d(num_features=256, eps=1e-05)
            )
            (conv2): Conv2d(
              256, 256, kernel_size=(3, 3), stride=(1, 1), padding=(1, 1), bias=False
              (norm): FrozenBatchNorm2d(num_features=256, eps=1e-05)
            )
            (conv3): Conv2d(
              256, 1024, kernel_size=(1, 1), stride=(1, 1), bias=False
              (norm): FrozenBatchNorm2d(num_features=1024, eps=1e-05)
            )
          )
          (20): BottleneckBlock(
            (conv1): Conv2d(
              1024, 256, kernel_size=(1, 1), stride=(1, 1), bias=False
              (norm): FrozenBatchNorm2d(num_features=256, eps=1e-05)
            )
            (conv2): Conv2d(
              256, 256, kernel_size=(3, 3), stride=(1, 1), padding=(1, 1), bias=False
              (norm): FrozenBatchNorm2d(num_features=256, eps=1e-05)
            )
            (conv3): Conv2d(
              256, 1024, kernel_size=(1, 1), stride=(1, 1), bias=False
              (norm): FrozenBatchNorm2d(num_features=1024, eps=1e-05)
            )
          )
          (21): BottleneckBlock(
            (conv1): Conv2d(
              1024, 256, kernel_size=(1, 1), stride=(1, 1), bias=False
              (norm): FrozenBatchNorm2d(num_features=256, eps=1e-05)
            )
            (conv2): Conv2d(
              256, 256, kernel_size=(3, 3), stride=(1, 1), padding=(1, 1), bias=False
              (norm): FrozenBatchNorm2d(num_features=256, eps=1e-05)
            )
            (conv3): Conv2d(
              256, 1024, kernel_size=(1, 1), stride=(1, 1), bias=False
              (norm): FrozenBatchNorm2d(num_features=1024, eps=1e-05)
            )
          )
          (22): BottleneckBlock(
            (conv1): Conv2d(
              1024, 256, kernel_size=(1, 1), stride=(1, 1), bias=False
              (norm): FrozenBatchNorm2d(num_features=256, eps=1e-05)
            )
            (conv2): Conv2d(
              256, 256, kernel_size=(3, 3), stride=(1, 1), padding=(1, 1), bias=False
              (norm): FrozenBatchNorm2d(num_features=256, eps=1e-05)
            )
            (conv3): Conv2d(
              256, 1024, kernel_size=(1, 1), stride=(1, 1), bias=False
              (norm): FrozenBatchNorm2d(num_features=1024, eps=1e-05)
            )
          )
        )
        (res5): Sequential(
          (0): BottleneckBlock(
            (shortcut): Conv2d(
              1024, 2048, kernel_size=(1, 1), stride=(2, 2), bias=False
              (norm): FrozenBatchNorm2d(num_features=2048, eps=1e-05)
            )
            (conv1): Conv2d(
              1024, 512, kernel_size=(1, 1), stride=(2, 2), bias=False
              (norm): FrozenBatchNorm2d(num_features=512, eps=1e-05)
            )
            (conv2): Conv2d(
              512, 512, kernel_size=(3, 3), stride=(1, 1), padding=(1, 1), bias=False
              (norm): FrozenBatchNorm2d(num_features=512, eps=1e-05)
            )
            (conv3): Conv2d(
              512, 2048, kernel_size=(1, 1), stride=(1, 1), bias=False
              (norm): FrozenBatchNorm2d(num_features=2048, eps=1e-05)
            )
          )
          (1): BottleneckBlock(
            (conv1): Conv2d(
              2048, 512, kernel_size=(1, 1), stride=(1, 1), bias=False
              (norm): FrozenBatchNorm2d(num_features=512, eps=1e-05)
            )
            (conv2): Conv2d(
              512, 512, kernel_size=(3, 3), stride=(1, 1), padding=(1, 1), bias=False
              (norm): FrozenBatchNorm2d(num_features=512, eps=1e-05)
            )
            (conv3): Conv2d(
              512, 2048, kernel_size=(1, 1), stride=(1, 1), bias=False
              (norm): FrozenBatchNorm2d(num_features=2048, eps=1e-05)
            )
          )
          (2): BottleneckBlock(
            (conv1): Conv2d(
              2048, 512, kernel_size=(1, 1), stride=(1, 1), bias=False
              (norm): FrozenBatchNorm2d(num_features=512, eps=1e-05)
            )
            (conv2): Conv2d(
              512, 512, kernel_size=(3, 3), stride=(1, 1), padding=(1, 1), bias=False
              (norm): FrozenBatchNorm2d(num_features=512, eps=1e-05)
            )
            (conv3): Conv2d(
              512, 2048, kernel_size=(1, 1), stride=(1, 1), bias=False
              (norm): FrozenBatchNorm2d(num_features=2048, eps=1e-05)
            )
          )
        )
      )
    )
    (proposal_generator): FCOS(
      (fcos_head): FCOSHead(
        (cls_tower): Sequential(
          (0): Conv2d(256, 256, kernel_size=(3, 3), stride=(1, 1), padding=(1, 1))
          (1): GroupNorm(32, 256, eps=1e-05, affine=True)
          (2): ReLU()
          (3): Conv2d(256, 256, kernel_size=(3, 3), stride=(1, 1), padding=(1, 1))
          (4): GroupNorm(32, 256, eps=1e-05, affine=True)
          (5): ReLU()
          (6): Conv2d(256, 256, kernel_size=(3, 3), stride=(1, 1), padding=(1, 1))
          (7): GroupNorm(32, 256, eps=1e-05, affine=True)
          (8): ReLU()
          (9): Conv2d(256, 256, kernel_size=(3, 3), stride=(1, 1), padding=(1, 1))
          (10): GroupNorm(32, 256, eps=1e-05, affine=True)
          (11): ReLU()
        )
        (bbox_tower): Sequential(
          (0): Conv2d(256, 256, kernel_size=(3, 3), stride=(1, 1), padding=(1, 1))
          (1): GroupNorm(32, 256, eps=1e-05, affine=True)
          (2): ReLU()
          (3): Conv2d(256, 256, kernel_size=(3, 3), stride=(1, 1), padding=(1, 1))
          (4): GroupNorm(32, 256, eps=1e-05, affine=True)
          (5): ReLU()
          (6): Conv2d(256, 256, kernel_size=(3, 3), stride=(1, 1), padding=(1, 1))
          (7): GroupNorm(32, 256, eps=1e-05, affine=True)
          (8): ReLU()
          (9): Conv2d(256, 256, kernel_size=(3, 3), stride=(1, 1), padding=(1, 1))
          (10): GroupNorm(32, 256, eps=1e-05, affine=True)
          (11): ReLU()
        )
        (share_tower): Sequential()
        (cls_logits): Conv2d(256, 80, kernel_size=(3, 3), stride=(1, 1), padding=(1, 1))
        (bbox_pred): Conv2d(256, 4, kernel_size=(3, 3), stride=(1, 1), padding=(1, 1))
        (ctrness): Conv2d(256, 1, kernel_size=(3, 3), stride=(1, 1), padding=(1, 1))
        (scales): ModuleList(
          (0): Scale()
          (1): Scale()
          (2): Scale()
          (3): Scale()
          (4): Scale()
        )
      )
      (fcos_outputs): FCOSOutputs(
        (loc_loss_func): IOULoss()
      )
    )
    (mask_head): DynamicMaskHead(
      (MSELoss): MSELoss()
    )
    (mask_branch): MaskBranch(
      (refine): ModuleList(
        (0): Sequential(
          (0): Conv2d(256, 128, kernel_size=(3, 3), stride=(1, 1), padding=(1, 1), bias=False)
          (1): BatchNorm2d(128, eps=1e-05, momentum=0.1, affine=True, track_running_stats=True)
          (2): ReLU(inplace=True)
        )
        (1): Sequential(
          (0): Conv2d(256, 128, kernel_size=(3, 3), stride=(1, 1), padding=(1, 1), bias=False)
          (1): BatchNorm2d(128, eps=1e-05, momentum=0.1, affine=True, track_running_stats=True)
          (2): ReLU(inplace=True)
        )
        (2): Sequential(
          (0): Conv2d(256, 128, kernel_size=(3, 3), stride=(1, 1), padding=(1, 1), bias=False)
          (1): BatchNorm2d(128, eps=1e-05, momentum=0.1, affine=True, track_running_stats=True)
          (2): ReLU(inplace=True)
        )
      )
      (tower): Sequential(
        (0): Sequential(
          (0): Conv2d(128, 128, kernel_size=(3, 3), stride=(1, 1), padding=(1, 1), bias=False)
          (1): BatchNorm2d(128, eps=1e-05, momentum=0.1, affine=True, track_running_stats=True)
          (2): ReLU(inplace=True)
        )
        (1): Sequential(
          (0): Conv2d(128, 128, kernel_size=(3, 3), stride=(1, 1), padding=(1, 1), bias=False)
          (1): BatchNorm2d(128, eps=1e-05, momentum=0.1, affine=True, track_running_stats=True)
          (2): ReLU(inplace=True)
        )
        (2): Sequential(
          (0): Conv2d(128, 128, kernel_size=(3, 3), stride=(1, 1), padding=(1, 1), bias=False)
          (1): BatchNorm2d(128, eps=1e-05, momentum=0.1, affine=True, track_running_stats=True)
          (2): ReLU(inplace=True)
        )
        (3): Sequential(
          (0): Conv2d(128, 128, kernel_size=(3, 3), stride=(1, 1), padding=(1, 1), bias=False)
          (1): BatchNorm2d(128, eps=1e-05, momentum=0.1, affine=True, track_running_stats=True)
          (2): ReLU(inplace=True)
        )
        (4): Conv2d(128, 16, kernel_size=(1, 1), stride=(1, 1))
      )
    )
    (controller): Conv2d(256, 233, kernel_size=(3, 3), stride=(1, 1), padding=(1, 1))
  )
)
[32m[06/24 21:25:29 d2.checkpoint.detection_checkpoint]: [0m[DetectionCheckpointer] Loading from /path/workspace/research/segmentation/BoxSeg/../BoxSeg_checkpoints/gavyn.voc.boxseg_r101_3x/model_final.pth ...
[32m[06/24 21:25:29 fvcore.common.checkpoint]: [0m[Checkpointer] Loading from /path/workspace/research/segmentation/BoxSeg/../BoxSeg_checkpoints/gavyn.voc.boxseg_r101_3x/model_final.pth ...
…
[38;5;15m    [39m[38;5;197mNUM_ITER[39m[38;5;15m:[39m[38;5;15m [39m[38;5;141m200[39m
[38;5;197mVERSION[39m[38;5;15m:[39m[38;5;15m [39m[38;5;141m2[39m
[38;5;197mVIS_PERIOD[39m[38;5;15m:[39m[38;5;15m [39m[38;5;141m0[39m

[32m[06/24 21:27:36 detectron2]: [0mFull config saved to /path/workspace/research/segmentation/BoxSeg/../BoxSeg_checkpoints/gavyn.voc.boxseg_r101_dcn_3x/test-dev/config.yaml
[32m[06/24 21:27:36 d2.utils.env]: [0mUsing a generated random seed 36442535
[32m[06/24 21:27:38 d2.engine.defaults]: [0mModel:
BoxSeg(
  (teacher): CondInst(
    (backbone): FPN(
      (fpn_lateral3): Conv2d(512, 256, kernel_size=(1, 1), stride=(1, 1))
      (fpn_output3): Conv2d(256, 256, kernel_size=(3, 3), stride=(1, 1), padding=(1, 1))
      (fpn_lateral4): Conv2d(1024, 256, kernel_size=(1, 1), stride=(1, 1))
      (fpn_output4): Conv2d(256, 256, kernel_size=(3, 3), stride=(1, 1), padding=(1, 1))
      (fpn_lateral5): Conv2d(2048, 256, kernel_size=(1, 1), stride=(1, 1))
      (fpn_output5): Conv2d(256, 256, kernel_size=(3, 3), stride=(1, 1), padding=(1, 1))
      (top_block): LastLevelP6P7(
        (p6): Conv2d(256, 256, kernel_size=(3, 3), stride=(2, 2), padding=(1, 1))
        (p7): Conv2d(256, 256, kernel_size=(3, 3), stride=(2, 2), padding=(1, 1))
      )
      (bottom_up): ResNet(
        (stem): BasicStem(
          (conv1): Conv2d(
            3, 64, kernel_size=(7, 7), stride=(2, 2), padding=(3, 3), bias=False
            (norm): FrozenBatchNorm2d(num_features=64, eps=1e-05)
          )
        )
        (res2): Sequential(
          (0): BottleneckBlock(
            (shortcut): Conv2d(
              64, 256, kernel_size=(1, 1), stride=(1, 1), bias=False
              (norm): FrozenBatchNorm2d(num_features=256, eps=1e-05)
            )
            (conv1): Conv2d(
              64, 64, kernel_size=(1, 1), stride=(1, 1), bias=False
              (norm): FrozenBatchNorm2d(num_features=64, eps=1e-05)
            )
            (conv2): Conv2d(
              64, 64, kernel_size=(3, 3), stride=(1, 1), padding=(1, 1), bias=False
              (norm): FrozenBatchNorm2d(num_features=64, eps=1e-05)
            )
            (conv3): Conv2d(
              64, 256, kernel_size=(1, 1), stride=(1, 1), bias=False
              (norm): FrozenBatchNorm2d(num_features=256, eps=1e-05)
            )
          )
          (1): BottleneckBlock(
            (conv1): Conv2d(
              256, 64, kernel_size=(1, 1), stride=(1, 1), bias=False
              (norm): FrozenBatchNorm2d(num_features=64, eps=1e-05)
            )
            (conv2): Conv2d(
              64, 64, kernel_size=(3, 3), stride=(1, 1), padding=(1, 1), bias=False
              (norm): FrozenBatchNorm2d(num_features=64, eps=1e-05)
            )
            (conv3): Conv2d(
              64, 256, kernel_size=(1, 1), stride=(1, 1), bias=False
              (norm): FrozenBatchNorm2d(num_features=256, eps=1e-05)
            )
          )
          (2): BottleneckBlock(
            (conv1): Conv2d(
              256, 64, kernel_size=(1, 1), stride=(1, 1), bias=False
              (norm): FrozenBatchNorm2d(num_features=64, eps=1e-05)
            )
            (conv2): Conv2d(
              64, 64, kernel_size=(3, 3), stride=(1, 1), padding=(1, 1), bias=False
              (norm): FrozenBatchNorm2d(num_features=64, eps=1e-05)
            )
            (conv3): Conv2d(
              64, 256, kernel_size=(1, 1), stride=(1, 1), bias=False
              (norm): FrozenBatchNorm2d(num_features=256, eps=1e-05)
            )
          )
        )
        (res3): Sequential(
          (0): DeformBottleneckBlock(
            (shortcut): Conv2d(
              256, 512, kernel_size=(1, 1), stride=(2, 2), bias=False
              (norm): FrozenBatchNorm2d(num_features=512, eps=1e-05)
            )
            (conv1): Conv2d(
              256, 128, kernel_size=(1, 1), stride=(1, 1), bias=False
              (norm): FrozenBatchNorm2d(num_features=128, eps=1e-05)
            )
            (conv2_offset): Conv2d(128, 27, kernel_size=(3, 3), stride=(2, 2), padding=(1, 1))
            (conv2): ModulatedDeformConv(
              in_channels=128, out_channels=128, kernel_size=(3, 3), stride=2, padding=1, dilation=1, groups=1, deformable_groups=1, bias=False
              (norm): FrozenBatchNorm2d(num_features=128, eps=1e-05)
            )
            (conv3): Conv2d(
              128, 512, kernel_size=(1, 1), stride=(1, 1), bias=False
              (norm): FrozenBatchNorm2d(num_features=512, eps=1e-05)
            )
          )
          (1): DeformBottleneckBlock(
            (conv1): Conv2d(
              512, 128, kernel_size=(1, 1), stride=(1, 1), bias=False
              (norm): FrozenBatchNorm2d(num_features=128, eps=1e-05)
            )
            (conv2_offset): Conv2d(128, 27, kernel_size=(3, 3), stride=(1, 1), padding=(1, 1))
            (conv2): ModulatedDeformConv(
              in_channels=128, out_channels=128, kernel_size=(3, 3), stride=1, padding=1, dilation=1, groups=1, deformable_groups=1, bias=False
              (norm): FrozenBatchNorm2d(num_features=128, eps=1e-05)
            )
            (conv3): Conv2d(
              128, 512, kernel_size=(1, 1), stride=(1, 1), bias=False
              (norm): FrozenBatchNorm2d(num_features=512, eps=1e-05)
            )
          )
          (2): DeformBottleneckBlock(
            (conv1): Conv2d(
              512, 128, kernel_size=(1, 1), stride=(1, 1), bias=False
              (norm): FrozenBatchNorm2d(num_features=128, eps=1e-05)
            )
            (conv2_offset): Conv2d(128, 27, kernel_size=(3, 3), stride=(1, 1), padding=(1, 1))
            (conv2): ModulatedDeformConv(
              in_channels=128, out_channels=128, kernel_size=(3, 3), stride=1, padding=1, dilation=1, groups=1, deformable_groups=1, bias=False
              (norm): FrozenBatchNorm2d(num_features=128, eps=1e-05)
            )
            (conv3): Conv2d(
              128, 512, kernel_size=(1, 1), stride=(1, 1), bias=False
              (norm): FrozenBatchNorm2d(num_features=512, eps=1e-05)
            )
          )
          (3): DeformBottleneckBlock(
            (conv1): Conv2d(
              512, 128, kernel_size=(1, 1), stride=(1, 1), bias=False
              (norm): FrozenBatchNorm2d(num_features=128, eps=1e-05)
            )
            (conv2_offset): Conv2d(128, 27, kernel_size=(3, 3), stride=(1, 1), padding=(1, 1))
            (conv2): ModulatedDeformConv(
              in_channels=128, out_channels=128, kernel_size=(3, 3), stride=1, padding=1, dilation=1, groups=1, deformable_groups=1, bias=False
              (norm): FrozenBatchNorm2d(num_features=128, eps=1e-05)
            )
            (conv3): Conv2d(
              128, 512, kernel_size=(1, 1), stride=(1, 1), bias=False
              (norm): FrozenBatchNorm2d(num_features=512, eps=1e-05)
            )
          )
        )
        (res4): Sequential(
          (0): DeformBottleneckBlock(
            (shortcut): Conv2d(
              512, 1024, kernel_size=(1, 1), stride=(2, 2), bias=False
              (norm): FrozenBatchNorm2d(num_features=1024, eps=1e-05)
            )
            (conv1): Conv2d(
              512, 256, kernel_size=(1, 1), stride=(1, 1), bias=False
              (norm): FrozenBatchNorm2d(num_features=256, eps=1e-05)
            )
            (conv2_offset): Conv2d(256, 27, kernel_size=(3, 3), stride=(2, 2), padding=(1, 1))
            (conv2): ModulatedDeformConv(
              in_channels=256, out_channels=256, kernel_size=(3, 3), stride=2, padding=1, dilation=1, groups=1, deformable_groups=1, bias=False
              (norm): FrozenBatchNorm2d(num_features=256, eps=1e-05)
            )
            (conv3): Conv2d(
              256, 1024, kernel_size=(1, 1), stride=(1, 1), bias=False
              (norm): FrozenBatchNorm2d(num_features=1024, eps=1e-05)
            )
          )
          (1): DeformBottleneckBlock(
            (conv1): Conv2d(
              1024, 256, kernel_size=(1, 1), stride=(1, 1), bias=False
              (norm): FrozenBatchNorm2d(num_features=256, eps=1e-05)
            )
            (conv2_offset): Conv2d(256, 27, kernel_size=(3, 3), stride=(1, 1), padding=(1, 1))
            (conv2): ModulatedDeformConv(
              in_channels=256, out_channels=256, kernel_size=(3, 3), stride=1, padding=1, dilation=1, groups=1, deformable_groups=1, bias=False
              (norm): FrozenBatchNorm2d(num_features=256, eps=1e-05)
            )
            (conv3): Conv2d(
              256, 1024, kernel_size=(1, 1), stride=(1, 1), bias=False
              (norm): FrozenBatchNorm2d(num_features=1024, eps=1e-05)
            )
          )
          (2): DeformBottleneckBlock(
            (conv1): Conv2d(
              1024, 256, kernel_size=(1, 1), stride=(1, 1), bias=False
              (norm): FrozenBatchNorm2d(num_features=256, eps=1e-05)
            )
            (conv2_offset): Conv2d(256, 27, kernel_size=(3, 3), stride=(1, 1), padding=(1, 1))
            (conv2): ModulatedDeformConv(
              in_channels=256, out_channels=256, kernel_size=(3, 3), stride=1, padding=1, dilation=1, groups=1, deformable_groups=1, bias=False
              (norm): FrozenBatchNorm2d(num_features=256, eps=1e-05)
            )
            (conv3): Conv2d(
              256, 1024, kernel_size=(1, 1), stride=(1, 1), bias=False
              (norm): FrozenBatchNorm2d(num_features=1024, eps=1e-05)
            )
          )
          (3): DeformBottleneckBlock(
            (conv1): Conv2d(
              1024, 256, kernel_size=(1, 1), stride=(1, 1), bias=False
              (norm): FrozenBatchNorm2d(num_features=256, eps=1e-05)
            )
            (conv2_offset): Conv2d(256, 27, kernel_size=(3, 3), stride=(1, 1), padding=(1, 1))
            (conv2): ModulatedDeformConv(
              in_channels=256, out_channels=256, kernel_size=(3, 3), stride=1, padding=1, dilation=1, groups=1, deformable_groups=1, bias=False
              (norm): FrozenBatchNorm2d(num_features=256, eps=1e-05)
            )
            (conv3): Conv2d(
              256, 1024, kernel_size=(1, 1), stride=(1, 1), bias=False
              (norm): FrozenBatchNorm2d(num_features=1024, eps=1e-05)
            )
          )
          (4): DeformBottleneckBlock(
            (conv1): Conv2d(
              1024, 256, kernel_size=(1, 1), stride=(1, 1), bias=False
              (norm): FrozenBatchNorm2d(num_features=256, eps=1e-05)
            )
            (conv2_offset): Conv2d(256, 27, kernel_size=(3, 3), stride=(1, 1), padding=(1, 1))
            (conv2): ModulatedDeformConv(
              in_channels=256, out_channels=256, kernel_size=(3, 3), stride=1, padding=1, dilation=1, groups=1, deformable_groups=1, bias=False
              (norm): FrozenBatchNorm2d(num_features=256, eps=1e-05)
            )
            (conv3): Conv2d(
              256, 1024, kernel_size=(1, 1), stride=(1, 1), bias=False
              (norm): FrozenBatchNorm2d(num_features=1024, eps=1e-05)
            )
          )
          (5): DeformBottleneckBlock(
            (conv1): Conv2d(
              1024, 256, kernel_size=(1, 1), stride=(1, 1), bias=False
              (norm): FrozenBatchNorm2d(num_features=256, eps=1e-05)
            )
            (conv2_offset): Conv2d(256, 27, kernel_size=(3, 3), stride=(1, 1), padding=(1, 1))
            (conv2): ModulatedDeformConv(
              in_channels=256, out_channels=256, kernel_size=(3, 3), stride=1, padding=1, dilation=1, groups=1, deformable_groups=1, bias=False
              (norm): FrozenBatchNorm2d(num_features=256, eps=1e-05)
            )
            (conv3): Conv2d(
              256, 1024, kernel_size=(1, 1), stride=(1, 1), bias=False
              (norm): FrozenBatchNorm2d(num_features=1024, eps=1e-05)
            )
          )
          (6): DeformBottleneckBlock(
            (conv1): Conv2d(
              1024, 256, kernel_size=(1, 1), stride=(1, 1), bias=False
              (norm): FrozenBatchNorm2d(num_features=256, eps=1e-05)
            )
            (conv2_offset): Conv2d(256, 27, kernel_size=(3, 3), stride=(1, 1), padding=(1, 1))
            (conv2): ModulatedDeformConv(
              in_channels=256, out_channels=256, kernel_size=(3, 3), stride=1, padding=1, dilation=1, groups=1, deformable_groups=1, bias=False
              (norm): FrozenBatchNorm2d(num_features=256, eps=1e-05)
            )
            (conv3): Conv2d(
              256, 1024, kernel_size=(1, 1), stride=(1, 1), bias=False
              (norm): FrozenBatchNorm2d(num_features=1024, eps=1e-05)
            )
          )
          (7): DeformBottleneckBlock(
            (conv1): Conv2d(
              1024, 256, kernel_size=(1, 1), stride=(1, 1), bias=False
              (norm): FrozenBatchNorm2d(num_features=256, eps=1e-05)
            )
            (conv2_offset): Conv2d(256, 27, kernel_size=(3, 3), stride=(1, 1), padding=(1, 1))
            (conv2): ModulatedDeformConv(
              in_channels=256, out_channels=256, kernel_size=(3, 3), stride=1, padding=1, dilation=1, groups=1, deformable_groups=1, bias=False
              (norm): FrozenBatchNorm2d(num_features=256, eps=1e-05)
            )
            (conv3): Conv2d(
              256, 1024, kernel_size=(1, 1), stride=(1, 1), bias=False
              (norm): FrozenBatchNorm2d(num_features=1024, eps=1e-05)
            )
          )
          (8): DeformBottleneckBlock(
            (conv1): Conv2d(
              1024, 256, kernel_size=(1, 1), stride=(1, 1), bias=False
              (norm): FrozenBatchNorm2d(num_features=256, eps=1e-05)
            )
            (conv2_offset): Conv2d(256, 27, kernel_size=(3, 3), stride=(1, 1), padding=(1, 1))
            (conv2): ModulatedDeformConv(
              in_channels=256, out_channels=256, kernel_size=(3, 3), stride=1, padding=1, dilation=1, groups=1, deformable_groups=1, bias=False
              (norm): FrozenBatchNorm2d(num_features=256, eps=1e-05)
            )
            (conv3): Conv2d(
              256, 1024, kernel_size=(1, 1), stride=(1, 1), bias=False
              (norm): FrozenBatchNorm2d(num_features=1024, eps=1e-05)
            )
          )
          (9): DeformBottleneckBlock(
            (conv1): Conv2d(
              1024, 256, kernel_size=(1, 1), stride=(1, 1), bias=False
              (norm): FrozenBatchNorm2d(num_features=256, eps=1e-05)
            )
            (conv2_offset): Conv2d(256, 27, kernel_size=(3, 3), stride=(1, 1), padding=(1, 1))
            (conv2): ModulatedDeformConv(
              in_channels=256, out_channels=256, kernel_size=(3, 3), stride=1, padding=1, dilation=1, groups=1, deformable_groups=1, bias=False
              (norm): FrozenBatchNorm2d(num_features=256, eps=1e-05)
            )
            (conv3): Conv2d(
              256, 1024, kernel_size=(1, 1), stride=(1, 1), bias=False
              (norm): FrozenBatchNorm2d(num_features=1024, eps=1e-05)
            )
          )
          (10): DeformBottleneckBlock(
            (conv1): Conv2d(
              1024, 256, kernel_size=(1, 1), stride=(1, 1), bias=False
              (norm): FrozenBatchNorm2d(num_features=256, eps=1e-05)
            )
            (conv2_offset): Conv2d(256, 27, kernel_size=(3, 3), stride=(1, 1), padding=(1, 1))
            (conv2): ModulatedDeformConv(
              in_channels=256, out_channels=256, kernel_size=(3, 3), stride=1, padding=1, dilation=1, groups=1, deformable_groups=1, bias=False
              (norm): FrozenBatchNorm2d(num_features=256, eps=1e-05)
            )
            (conv3): Conv2d(
              256, 1024, kernel_size=(1, 1), stride=(1, 1), bias=False
              (norm): FrozenBatchNorm2d(num_features=1024, eps=1e-05)
            )
          )
          (11): DeformBottleneckBlock(
            (conv1): Conv2d(
              1024, 256, kernel_size=(1, 1), stride=(1, 1), bias=False
              (norm): FrozenBatchNorm2d(num_features=256, eps=1e-05)
            )
            (conv2_offset): Conv2d(256, 27, kernel_size=(3, 3), stride=(1, 1), padding=(1, 1))
            (conv2): ModulatedDeformConv(
              in_channels=256, out_channels=256, kernel_size=(3, 3), stride=1, padding=1, dilation=1, groups=1, deformable_groups=1, bias=False
              (norm): FrozenBatchNorm2d(num_features=256, eps=1e-05)
            )
            (conv3): Conv2d(
              256, 1024, kernel_size=(1, 1), stride=(1, 1), bias=False
              (norm): FrozenBatchNorm2d(num_features=1024, eps=1e-05)
            )
          )
          (12): DeformBottleneckBlock(
            (conv1): Conv2d(
              1024, 256, kernel_size=(1, 1), stride=(1, 1), bias=False
              (norm): FrozenBatchNorm2d(num_features=256, eps=1e-05)
            )
            (conv2_offset): Conv2d(256, 27, kernel_size=(3, 3), stride=(1, 1), padding=(1, 1))
            (conv2): ModulatedDeformConv(
              in_channels=256, out_channels=256, kernel_size=(3, 3), stride=1, padding=1, dilation=1, groups=1, deformable_groups=1, bias=False
              (norm): FrozenBatchNorm2d(num_features=256, eps=1e-05)
            )
            (conv3): Conv2d(
              256, 1024, kernel_size=(1, 1), stride=(1, 1), bias=False
              (norm): FrozenBatchNorm2d(num_features=1024, eps=1e-05)
            )
          )
          (13): DeformBottleneckBlock(
            (conv1): Conv2d(
              1024, 256, kernel_size=(1, 1), stride=(1, 1), bias=False
              (norm): FrozenBatchNorm2d(num_features=256, eps=1e-05)
            )
            (conv2_offset): Conv2d(256, 27, kernel_size=(3, 3), stride=(1, 1), padding=(1, 1))
            (conv2): ModulatedDeformConv(
              in_channels=256, out_channels=256, kernel_size=(3, 3), stride=1, padding=1, dilation=1, groups=1, deformable_groups=1, bias=False
              (norm): FrozenBatchNorm2d(num_features=256, eps=1e-05)
            )
            (conv3): Conv2d(
              256, 1024, kernel_size=(1, 1), stride=(1, 1), bias=False
              (norm): FrozenBatchNorm2d(num_features=1024, eps=1e-05)
            )
          )
          (14): DeformBottleneckBlock(
            (conv1): Conv2d(
              1024, 256, kernel_size=(1, 1), stride=(1, 1), bias=False
              (norm): FrozenBatchNorm2d(num_features=256, eps=1e-05)
            )
            (conv2_offset): Conv2d(256, 27, kernel_size=(3, 3), stride=(1, 1), padding=(1, 1))
            (conv2): ModulatedDeformConv(
              in_channels=256, out_channels=256, kernel_size=(3, 3), stride=1, padding=1, dilation=1, groups=1, deformable_groups=1, bias=False
              (norm): FrozenBatchNorm2d(num_features=256, eps=1e-05)
            )
            (conv3): Conv2d(
              256, 1024, kernel_size=(1, 1), stride=(1, 1), bias=False
              (norm): FrozenBatchNorm2d(num_features=1024, eps=1e-05)
            )
          )
          (15): DeformBottleneckBlock(
            (conv1): Conv2d(
              1024, 256, kernel_size=(1, 1), stride=(1, 1), bias=False
              (norm): FrozenBatchNorm2d(num_features=256, eps=1e-05)
            )
            (conv2_offset): Conv2d(256, 27, kernel_size=(3, 3), stride=(1, 1), padding=(1, 1))
            (conv2): ModulatedDeformConv(
              in_channels=256, out_channels=256, kernel_size=(3, 3), stride=1, padding=1, dilation=1, groups=1, deformable_groups=1, bias=False
              (norm): FrozenBatchNorm2d(num_features=256, eps=1e-05)
            )
            (conv3): Conv2d(
              256, 1024, kernel_size=(1, 1), stride=(1, 1), bias=False
              (norm): FrozenBatchNorm2d(num_features=1024, eps=1e-05)
            )
          )
          (16): DeformBottleneckBlock(
            (conv1): Conv2d(
              1024, 256, kernel_size=(1, 1), stride=(1, 1), bias=False
              (norm): FrozenBatchNorm2d(num_features=256, eps=1e-05)
            )
            (conv2_offset): Conv2d(256, 27, kernel_size=(3, 3), stride=(1, 1), padding=(1, 1))
            (conv2): ModulatedDeformConv(
              in_channels=256, out_channels=256, kernel_size=(3, 3), stride=1, padding=1, dilation=1, groups=1, deformable_groups=1, bias=False
              (norm): FrozenBatchNorm2d(num_features=256, eps=1e-05)
            )
            (conv3): Conv2d(
              256, 1024, kernel_size=(1, 1), stride=(1, 1), bias=False
              (norm): FrozenBatchNorm2d(num_features=1024, eps=1e-05)
            )
          )
          (17): DeformBottleneckBlock(
            (conv1): Conv2d(
              1024, 256, kernel_size=(1, 1), stride=(1, 1), bias=False
              (norm): FrozenBatchNorm2d(num_features=256, eps=1e-05)
            )
            (conv2_offset): Conv2d(256, 27, kernel_size=(3, 3), stride=(1, 1), padding=(1, 1))
            (conv2): ModulatedDeformConv(
              in_channels=256, out_channels=256, kernel_size=(3, 3), stride=1, padding=1, dilation=1, groups=1, deformable_groups=1, bias=False
              (norm): FrozenBatchNorm2d(num_features=256, eps=1e-05)
            )
            (conv3): Conv2d(
              256, 1024, kernel_size=(1, 1), stride=(1, 1), bias=False
              (norm): FrozenBatchNorm2d(num_features=1024, eps=1e-05)
            )
          )
          (18): DeformBottleneckBlock(
            (conv1): Conv2d(
              1024, 256, kernel_size=(1, 1), stride=(1, 1), bias=False
              (norm): FrozenBatchNorm2d(num_features=256, eps=1e-05)
            )
            (conv2_offset): Conv2d(256, 27, kernel_size=(3, 3), stride=(1, 1), padding=(1, 1))
            (conv2): ModulatedDeformConv(
              in_channels=256, out_channels=256, kernel_size=(3, 3), stride=1, padding=1, dilation=1, groups=1, deformable_groups=1, bias=False
              (norm): FrozenBatchNorm2d(num_features=256, eps=1e-05)
            )
            (conv3): Conv2d(
              256, 1024, kernel_size=(1, 1), stride=(1, 1), bias=False
              (norm): FrozenBatchNorm2d(num_features=1024, eps=1e-05)
            )
          )
          (19): DeformBottleneckBlock(
            (conv1): Conv2d(
              1024, 256, kernel_size=(1, 1), stride=(1, 1), bias=False
              (norm): FrozenBatchNorm2d(num_features=256, eps=1e-05)
            )
            (conv2_offset): Conv2d(256, 27, kernel_size=(3, 3), stride=(1, 1), padding=(1, 1))
            (conv2): ModulatedDeformConv(
              in_channels=256, out_channels=256, kernel_size=(3, 3), stride=1, padding=1, dilation=1, groups=1, deformable_groups=1, bias=False
              (norm): FrozenBatchNorm2d(num_features=256, eps=1e-05)
            )
            (conv3): Conv2d(
              256, 1024, kernel_size=(1, 1), stride=(1, 1), bias=False
              (norm): FrozenBatchNorm2d(num_features=1024, eps=1e-05)
            )
          )
          (20): DeformBottleneckBlock(
            (conv1): Conv2d(
              1024, 256, kernel_size=(1, 1), stride=(1, 1), bias=False
              (norm): FrozenBatchNorm2d(num_features=256, eps=1e-05)
            )
            (conv2_offset): Conv2d(256, 27, kernel_size=(3, 3), stride=(1, 1), padding=(1, 1))
            (conv2): ModulatedDeformConv(
              in_channels=256, out_channels=256, kernel_size=(3, 3), stride=1, padding=1, dilation=1, groups=1, deformable_groups=1, bias=False
              (norm): FrozenBatchNorm2d(num_features=256, eps=1e-05)
            )
            (conv3): Conv2d(
              256, 1024, kernel_size=(1, 1), stride=(1, 1), bias=False
              (norm): FrozenBatchNorm2d(num_features=1024, eps=1e-05)
            )
          )
          (21): DeformBottleneckBlock(
            (conv1): Conv2d(
              1024, 256, kernel_size=(1, 1), stride=(1, 1), bias=False
              (norm): FrozenBatchNorm2d(num_features=256, eps=1e-05)
            )
            (conv2_offset): Conv2d(256, 27, kernel_size=(3, 3), stride=(1, 1), padding=(1, 1))
            (conv2): ModulatedDeformConv(
              in_channels=256, out_channels=256, kernel_size=(3, 3), stride=1, padding=1, dilation=1, groups=1, deformable_groups=1, bias=False
              (norm): FrozenBatchNorm2d(num_features=256, eps=1e-05)
            )
            (conv3): Conv2d(
              256, 1024, kernel_size=(1, 1), stride=(1, 1), bias=False
              (norm): FrozenBatchNorm2d(num_features=1024, eps=1e-05)
            )
          )
          (22): DeformBottleneckBlock(
            (conv1): Conv2d(
              1024, 256, kernel_size=(1, 1), stride=(1, 1), bias=False
              (norm): FrozenBatchNorm2d(num_features=256, eps=1e-05)
            )
            (conv2_offset): Conv2d(256, 27, kernel_size=(3, 3), stride=(1, 1), padding=(1, 1))
            (conv2): ModulatedDeformConv(
              in_channels=256, out_channels=256, kernel_size=(3, 3), stride=1, padding=1, dilation=1, groups=1, deformable_groups=1, bias=False
              (norm): FrozenBatchNorm2d(num_features=256, eps=1e-05)
            )
            (conv3): Conv2d(
              256, 1024, kernel_size=(1, 1), stride=(1, 1), bias=False
              (norm): FrozenBatchNorm2d(num_features=1024, eps=1e-05)
            )
          )
        )
        (res5): Sequential(
          (0): DeformBottleneckBlock(
            (shortcut): Conv2d(
              1024, 2048, kernel_size=(1, 1), stride=(2, 2), bias=False
              (norm): FrozenBatchNorm2d(num_features=2048, eps=1e-05)
            )
            (conv1): Conv2d(
              1024, 512, kernel_size=(1, 1), stride=(1, 1), bias=False
              (norm): FrozenBatchNorm2d(num_features=512, eps=1e-05)
            )
            (conv2_offset): Conv2d(512, 27, kernel_size=(3, 3), stride=(2, 2), padding=(1, 1))
            (conv2): ModulatedDeformConv(
              in_channels=512, out_channels=512, kernel_size=(3, 3), stride=2, padding=1, dilation=1, groups=1, deformable_groups=1, bias=False
              (norm): FrozenBatchNorm2d(num_features=512, eps=1e-05)
            )
            (conv3): Conv2d(
              512, 2048, kernel_size=(1, 1), stride=(1, 1), bias=False
              (norm): FrozenBatchNorm2d(num_features=2048, eps=1e-05)
            )
          )
          (1): DeformBottleneckBlock(
            (conv1): Conv2d(
              2048, 512, kernel_size=(1, 1), stride=(1, 1), bias=False
              (norm): FrozenBatchNorm2d(num_features=512, eps=1e-05)
            )
            (conv2_offset): Conv2d(512, 27, kernel_size=(3, 3), stride=(1, 1), padding=(1, 1))
            (conv2): ModulatedDeformConv(
              in_channels=512, out_channels=512, kernel_size=(3, 3), stride=1, padding=1, dilation=1, groups=1, deformable_groups=1, bias=False
              (norm): FrozenBatchNorm2d(num_features=512, eps=1e-05)
            )
            (conv3): Conv2d(
              512, 2048, kernel_size=(1, 1), stride=(1, 1), bias=False
              (norm): FrozenBatchNorm2d(num_features=2048, eps=1e-05)
            )
          )
          (2): DeformBottleneckBlock(
            (conv1): Conv2d(
              2048, 512, kernel_size=(1, 1), stride=(1, 1), bias=False
              (norm): FrozenBatchNorm2d(num_features=512, eps=1e-05)
            )
            (conv2_offset): Conv2d(512, 27, kernel_size=(3, 3), stride=(1, 1), padding=(1, 1))
            (conv2): ModulatedDeformConv(
              in_channels=512, out_channels=512, kernel_size=(3, 3), stride=1, padding=1, dilation=1, groups=1, deformable_groups=1, bias=False
              (norm): FrozenBatchNorm2d(num_features=512, eps=1e-05)
            )
            (conv3): Conv2d(
              512, 2048, kernel_size=(1, 1), stride=(1, 1), bias=False
              (norm): FrozenBatchNorm2d(num_features=2048, eps=1e-05)
            )
          )
        )
      )
    )
    (proposal_generator): FCOS(
      (fcos_head): FCOSHead(
        (cls_tower): Sequential(
          (0): Conv2d(256, 256, kernel_size=(3, 3), stride=(1, 1), padding=(1, 1))
          (1): GroupNorm(32, 256, eps=1e-05, affine=True)
          (2): ReLU()
          (3): Conv2d(256, 256, kernel_size=(3, 3), stride=(1, 1), padding=(1, 1))
          (4): GroupNorm(32, 256, eps=1e-05, affine=True)
          (5): ReLU()
          (6): Conv2d(256, 256, kernel_size=(3, 3), stride=(1, 1), padding=(1, 1))
          (7): GroupNorm(32, 256, eps=1e-05, affine=True)
          (8): ReLU()
          (9): Conv2d(256, 256, kernel_size=(3, 3), stride=(1, 1), padding=(1, 1))
          (10): GroupNorm(32, 256, eps=1e-05, affine=True)
          (11): ReLU()
        )
        (bbox_tower): Sequential(
          (0): Conv2d(256, 256, kernel_size=(3, 3), stride=(1, 1), padding=(1, 1))
          (1): GroupNorm(32, 256, eps=1e-05, affine=True)
          (2): ReLU()
          (3): Conv2d(256, 256, kernel_size=(3, 3), stride=(1, 1), padding=(1, 1))
          (4): GroupNorm(32, 256, eps=1e-05, affine=True)
          (5): ReLU()
          (6): Conv2d(256, 256, kernel_size=(3, 3), stride=(1, 1), padding=(1, 1))
          (7): GroupNorm(32, 256, eps=1e-05, affine=True)
          (8): ReLU()
          (9): Conv2d(256, 256, kernel_size=(3, 3), stride=(1, 1), padding=(1, 1))
          (10): GroupNorm(32, 256, eps=1e-05, affine=True)
          (11): ReLU()
        )
        (share_tower): Sequential()
        (cls_logits): Conv2d(256, 80, kernel_size=(3, 3), stride=(1, 1), padding=(1, 1))
        (bbox_pred): Conv2d(256, 4, kernel_size=(3, 3), stride=(1, 1), padding=(1, 1))
        (ctrness): Conv2d(256, 1, kernel_size=(3, 3), stride=(1, 1), padding=(1, 1))
        (scales): ModuleList(
          (0): Scale()
          (1): Scale()
          (2): Scale()
          (3): Scale()
          (4): Scale()
        )
      )
      (fcos_outputs): FCOSOutputs(
        (loc_loss_func): IOULoss()
      )
    )
    (mask_head): DynamicMaskHead(
      (MSELoss): MSELoss()
    )
    (mask_branch): MaskBranch(
      (refine): ModuleList(
        (0): Sequential(
          (0): Conv2d(256, 128, kernel_size=(3, 3), stride=(1, 1), padding=(1, 1), bias=False)
          (1): BatchNorm2d(128, eps=1e-05, momentum=0.1, affine=True, track_running_stats=True)
          (2): ReLU(inplace=True)
        )
        (1): Sequential(
          (0): Conv2d(256, 128, kernel_size=(3, 3), stride=(1, 1), padding=(1, 1), bias=False)
          (1): BatchNorm2d(128, eps=1e-05, momentum=0.1, affine=True, track_running_stats=True)
          (2): ReLU(inplace=True)
        )
        (2): Sequential(
          (0): Conv2d(256, 128, kernel_size=(3, 3), stride=(1, 1), padding=(1, 1), bias=False)
          (1): BatchNorm2d(128, eps=1e-05, momentum=0.1, affine=True, track_running_stats=True)
          (2): ReLU(inplace=True)
        )
      )
      (tower): Sequential(
        (0): Sequential(
          (0): Conv2d(128, 128, kernel_size=(3, 3), stride=(1, 1), padding=(1, 1), bias=False)
          (1): BatchNorm2d(128, eps=1e-05, momentum=0.1, affine=True, track_running_stats=True)
          (2): ReLU(inplace=True)
        )
        (1): Sequential(
          (0): Conv2d(128, 128, kernel_size=(3, 3), stride=(1, 1), padding=(1, 1), bias=False)
          (1): BatchNorm2d(128, eps=1e-05, momentum=0.1, affine=True, track_running_stats=True)
          (2): ReLU(inplace=True)
        )
        (2): Sequential(
          (0): Conv2d(128, 128, kernel_size=(3, 3), stride=(1, 1), padding=(1, 1), bias=False)
          (1): BatchNorm2d(128, eps=1e-05, momentum=0.1, affine=True, track_running_stats=True)
          (2): ReLU(inplace=True)
        )
        (3): Sequential(
          (0): Conv2d(128, 128, kernel_size=(3, 3), stride=(1, 1), padding=(1, 1), bias=False)
          (1): BatchNorm2d(128, eps=1e-05, momentum=0.1, affine=True, track_running_stats=True)
          (2): ReLU(inplace=True)
        )
        (4): Conv2d(128, 16, kernel_size=(1, 1), stride=(1, 1))
      )
    )
    (controller): Conv2d(256, 233, kernel_size=(3, 3), stride=(1, 1), padding=(1, 1))
  )
  (student): CondInst(
    (backbone): FPN(
      (fpn_lateral3): Conv2d(512, 256, kernel_size=(1, 1), stride=(1, 1))
      (fpn_output3): Conv2d(256, 256, kernel_size=(3, 3), stride=(1, 1), padding=(1, 1))
      (fpn_lateral4): Conv2d(1024, 256, kernel_size=(1, 1), stride=(1, 1))
      (fpn_output4): Conv2d(256, 256, kernel_size=(3, 3), stride=(1, 1), padding=(1, 1))
      (fpn_lateral5): Conv2d(2048, 256, kernel_size=(1, 1), stride=(1, 1))
      (fpn_output5): Conv2d(256, 256, kernel_size=(3, 3), stride=(1, 1), padding=(1, 1))
      (top_block): LastLevelP6P7(
        (p6): Conv2d(256, 256, kernel_size=(3, 3), stride=(2, 2), padding=(1, 1))
        (p7): Conv2d(256, 256, kernel_size=(3, 3), stride=(2, 2), padding=(1, 1))
      )
      (bottom_up): ResNet(
        (stem): BasicStem(
          (conv1): Conv2d(
            3, 64, kernel_size=(7, 7), stride=(2, 2), padding=(3, 3), bias=False
            (norm): FrozenBatchNorm2d(num_features=64, eps=1e-05)
          )
        )
        (res2): Sequential(
          (0): BottleneckBlock(
            (shortcut): Conv2d(
              64, 256, kernel_size=(1, 1), stride=(1, 1), bias=False
              (norm): FrozenBatchNorm2d(num_features=256, eps=1e-05)
            )
            (conv1): Conv2d(
              64, 64, kernel_size=(1, 1), stride=(1, 1), bias=False
              (norm): FrozenBatchNorm2d(num_features=64, eps=1e-05)
            )
            (conv2): Conv2d(
              64, 64, kernel_size=(3, 3), stride=(1, 1), padding=(1, 1), bias=False
              (norm): FrozenBatchNorm2d(num_features=64, eps=1e-05)
            )
            (conv3): Conv2d(
              64, 256, kernel_size=(1, 1), stride=(1, 1), bias=False
              (norm): FrozenBatchNorm2d(num_features=256, eps=1e-05)
            )
          )
          (1): BottleneckBlock(
            (conv1): Conv2d(
              256, 64, kernel_size=(1, 1), stride=(1, 1), bias=False
              (norm): FrozenBatchNorm2d(num_features=64, eps=1e-05)
            )
            (conv2): Conv2d(
              64, 64, kernel_size=(3, 3), stride=(1, 1), padding=(1, 1), bias=False
              (norm): FrozenBatchNorm2d(num_features=64, eps=1e-05)
            )
            (conv3): Conv2d(
              64, 256, kernel_size=(1, 1), stride=(1, 1), bias=False
              (norm): FrozenBatchNorm2d(num_features=256, eps=1e-05)
            )
          )
          (2): BottleneckBlock(
            (conv1): Conv2d(
              256, 64, kernel_size=(1, 1), stride=(1, 1), bias=False
              (norm): FrozenBatchNorm2d(num_features=64, eps=1e-05)
            )
            (conv2): Conv2d(
              64, 64, kernel_size=(3, 3), stride=(1, 1), padding=(1, 1), bias=False
              (norm): FrozenBatchNorm2d(num_features=64, eps=1e-05)
            )
            (conv3): Conv2d(
              64, 256, kernel_size=(1, 1), stride=(1, 1), bias=False
              (norm): FrozenBatchNorm2d(num_features=256, eps=1e-05)
            )
          )
        )
        (res3): Sequential(
          (0): DeformBottleneckBlock(
            (shortcut): Conv2d(
              256, 512, kernel_size=(1, 1), stride=(2, 2), bias=False
              (norm): FrozenBatchNorm2d(num_features=512, eps=1e-05)
            )
            (conv1): Conv2d(
              256, 128, kernel_size=(1, 1), stride=(1, 1), bias=False
              (norm): FrozenBatchNorm2d(num_features=128, eps=1e-05)
            )
            (conv2_offset): Conv2d(128, 27, kernel_size=(3, 3), stride=(2, 2), padding=(1, 1))
            (conv2): ModulatedDeformConv(
              in_channels=128, out_channels=128, kernel_size=(3, 3), stride=2, padding=1, dilation=1, groups=1, deformable_groups=1, bias=False
              (norm): FrozenBatchNorm2d(num_features=128, eps=1e-05)
            )
            (conv3): Conv2d(
              128, 512, kernel_size=(1, 1), stride=(1, 1), bias=False
              (norm): FrozenBatchNorm2d(num_features=512, eps=1e-05)
            )
          )
          (1): DeformBottleneckBlock(
            (conv1): Conv2d(
              512, 128, kernel_size=(1, 1), stride=(1, 1), bias=False
              (norm): FrozenBatchNorm2d(num_features=128, eps=1e-05)
            )
            (conv2_offset): Conv2d(128, 27, kernel_size=(3, 3), stride=(1, 1), padding=(1, 1))
            (conv2): ModulatedDeformConv(
              in_channels=128, out_channels=128, kernel_size=(3, 3), stride=1, padding=1, dilation=1, groups=1, deformable_groups=1, bias=False
              (norm): FrozenBatchNorm2d(num_features=128, eps=1e-05)
            )
            (conv3): Conv2d(
              128, 512, kernel_size=(1, 1), stride=(1, 1), bias=False
              (norm): FrozenBatchNorm2d(num_features=512, eps=1e-05)
            )
          )
          (2): DeformBottleneckBlock(
            (conv1): Conv2d(
              512, 128, kernel_size=(1, 1), stride=(1, 1), bias=False
              (norm): FrozenBatchNorm2d(num_features=128, eps=1e-05)
            )
            (conv2_offset): Conv2d(128, 27, kernel_size=(3, 3), stride=(1, 1), padding=(1, 1))
            (conv2): ModulatedDeformConv(
              in_channels=128, out_channels=128, kernel_size=(3, 3), stride=1, padding=1, dilation=1, groups=1, deformable_groups=1, bias=False
              (norm): FrozenBatchNorm2d(num_features=128, eps=1e-05)
            )
            (conv3): Conv2d(
              128, 512, kernel_size=(1, 1), stride=(1, 1), bias=False
              (norm): FrozenBatchNorm2d(num_features=512, eps=1e-05)
            )
          )
          (3): DeformBottleneckBlock(
            (conv1): Conv2d(
              512, 128, kernel_size=(1, 1), stride=(1, 1), bias=False
              (norm): FrozenBatchNorm2d(num_features=128, eps=1e-05)
            )
            (conv2_offset): Conv2d(128, 27, kernel_size=(3, 3), stride=(1, 1), padding=(1, 1))
            (conv2): ModulatedDeformConv(
              in_channels=128, out_channels=128, kernel_size=(3, 3), stride=1, padding=1, dilation=1, groups=1, deformable_groups=1, bias=False
              (norm): FrozenBatchNorm2d(num_features=128, eps=1e-05)
            )
            (conv3): Conv2d(
              128, 512, kernel_size=(1, 1), stride=(1, 1), bias=False
              (norm): FrozenBatchNorm2d(num_features=512, eps=1e-05)
            )
          )
        )
        (res4): Sequential(
          (0): DeformBottleneckBlock(
            (shortcut): Conv2d(
              512, 1024, kernel_size=(1, 1), stride=(2, 2), bias=False
              (norm): FrozenBatchNorm2d(num_features=1024, eps=1e-05)
            )
            (conv1): Conv2d(
              512, 256, kernel_size=(1, 1), stride=(1, 1), bias=False
              (norm): FrozenBatchNorm2d(num_features=256, eps=1e-05)
            )
            (conv2_offset): Conv2d(256, 27, kernel_size=(3, 3), stride=(2, 2), padding=(1, 1))
            (conv2): ModulatedDeformConv(
              in_channels=256, out_channels=256, kernel_size=(3, 3), stride=2, padding=1, dilation=1, groups=1, deformable_groups=1, bias=False
              (norm): FrozenBatchNorm2d(num_features=256, eps=1e-05)
            )
            (conv3): Conv2d(
              256, 1024, kernel_size=(1, 1), stride=(1, 1), bias=False
              (norm): FrozenBatchNorm2d(num_features=1024, eps=1e-05)
            )
          )
          (1): DeformBottleneckBlock(
            (conv1): Conv2d(
              1024, 256, kernel_size=(1, 1), stride=(1, 1), bias=False
              (norm): FrozenBatchNorm2d(num_features=256, eps=1e-05)
            )
            (conv2_offset): Conv2d(256, 27, kernel_size=(3, 3), stride=(1, 1), padding=(1, 1))
            (conv2): ModulatedDeformConv(
              in_channels=256, out_channels=256, kernel_size=(3, 3), stride=1, padding=1, dilation=1, groups=1, deformable_groups=1, bias=False
              (norm): FrozenBatchNorm2d(num_features=256, eps=1e-05)
            )
            (conv3): Conv2d(
              256, 1024, kernel_size=(1, 1), stride=(1, 1), bias=False
              (norm): FrozenBatchNorm2d(num_features=1024, eps=1e-05)
            )
          )
          (2): DeformBottleneckBlock(
            (conv1): Conv2d(
              1024, 256, kernel_size=(1, 1), stride=(1, 1), bias=False
              (norm): FrozenBatchNorm2d(num_features=256, eps=1e-05)
            )
            (conv2_offset): Conv2d(256, 27, kernel_size=(3, 3), stride=(1, 1), padding=(1, 1))
            (conv2): ModulatedDeformConv(
              in_channels=256, out_channels=256, kernel_size=(3, 3), stride=1, padding=1, dilation=1, groups=1, deformable_groups=1, bias=False
              (norm): FrozenBatchNorm2d(num_features=256, eps=1e-05)
            )
            (conv3): Conv2d(
              256, 1024, kernel_size=(1, 1), stride=(1, 1), bias=False
              (norm): FrozenBatchNorm2d(num_features=1024, eps=1e-05)
            )
          )
          (3): DeformBottleneckBlock(
            (conv1): Conv2d(
              1024, 256, kernel_size=(1, 1), stride=(1, 1), bias=False
              (norm): FrozenBatchNorm2d(num_features=256, eps=1e-05)
            )
            (conv2_offset): Conv2d(256, 27, kernel_size=(3, 3), stride=(1, 1), padding=(1, 1))
            (conv2): ModulatedDeformConv(
              in_channels=256, out_channels=256, kernel_size=(3, 3), stride=1, padding=1, dilation=1, groups=1, deformable_groups=1, bias=False
              (norm): FrozenBatchNorm2d(num_features=256, eps=1e-05)
            )
            (conv3): Conv2d(
              256, 1024, kernel_size=(1, 1), stride=(1, 1), bias=False
              (norm): FrozenBatchNorm2d(num_features=1024, eps=1e-05)
            )
          )
          (4): DeformBottleneckBlock(
            (conv1): Conv2d(
              1024, 256, kernel_size=(1, 1), stride=(1, 1), bias=False
              (norm): FrozenBatchNorm2d(num_features=256, eps=1e-05)
            )
            (conv2_offset): Conv2d(256, 27, kernel_size=(3, 3), stride=(1, 1), padding=(1, 1))
            (conv2): ModulatedDeformConv(
              in_channels=256, out_channels=256, kernel_size=(3, 3), stride=1, padding=1, dilation=1, groups=1, deformable_groups=1, bias=False
              (norm): FrozenBatchNorm2d(num_features=256, eps=1e-05)
            )
            (conv3): Conv2d(
              256, 1024, kernel_size=(1, 1), stride=(1, 1), bias=False
              (norm): FrozenBatchNorm2d(num_features=1024, eps=1e-05)
            )
          )
          (5): DeformBottleneckBlock(
            (conv1): Conv2d(
              1024, 256, kernel_size=(1, 1), stride=(1, 1), bias=False
              (norm): FrozenBatchNorm2d(num_features=256, eps=1e-05)
            )
            (conv2_offset): Conv2d(256, 27, kernel_size=(3, 3), stride=(1, 1), padding=(1, 1))
            (conv2): ModulatedDeformConv(
              in_channels=256, out_channels=256, kernel_size=(3, 3), stride=1, padding=1, dilation=1, groups=1, deformable_groups=1, bias=False
              (norm): FrozenBatchNorm2d(num_features=256, eps=1e-05)
            )
            (conv3): Conv2d(
              256, 1024, kernel_size=(1, 1), stride=(1, 1), bias=False
              (norm): FrozenBatchNorm2d(num_features=1024, eps=1e-05)
            )
          )
          (6): DeformBottleneckBlock(
            (conv1): Conv2d(
              1024, 256, kernel_size=(1, 1), stride=(1, 1), bias=False
              (norm): FrozenBatchNorm2d(num_features=256, eps=1e-05)
            )
            (conv2_offset): Conv2d(256, 27, kernel_size=(3, 3), stride=(1, 1), padding=(1, 1))
            (conv2): ModulatedDeformConv(
              in_channels=256, out_channels=256, kernel_size=(3, 3), stride=1, padding=1, dilation=1, groups=1, deformable_groups=1, bias=False
              (norm): FrozenBatchNorm2d(num_features=256, eps=1e-05)
            )
            (conv3): Conv2d(
              256, 1024, kernel_size=(1, 1), stride=(1, 1), bias=False
              (norm): FrozenBatchNorm2d(num_features=1024, eps=1e-05)
            )
          )
          (7): DeformBottleneckBlock(
            (conv1): Conv2d(
              1024, 256, kernel_size=(1, 1), stride=(1, 1), bias=False
              (norm): FrozenBatchNorm2d(num_features=256, eps=1e-05)
            )
            (conv2_offset): Conv2d(256, 27, kernel_size=(3, 3), stride=(1, 1), padding=(1, 1))
            (conv2): ModulatedDeformConv(
              in_channels=256, out_channels=256, kernel_size=(3, 3), stride=1, padding=1, dilation=1, groups=1, deformable_groups=1, bias=False
              (norm): FrozenBatchNorm2d(num_features=256, eps=1e-05)
            )
            (conv3): Conv2d(
              256, 1024, kernel_size=(1, 1), stride=(1, 1), bias=False
              (norm): FrozenBatchNorm2d(num_features=1024, eps=1e-05)
            )
          )
          (8): DeformBottleneckBlock(
            (conv1): Conv2d(
              1024, 256, kernel_size=(1, 1), stride=(1, 1), bias=False
              (norm): FrozenBatchNorm2d(num_features=256, eps=1e-05)
            )
            (conv2_offset): Conv2d(256, 27, kernel_size=(3, 3), stride=(1, 1), padding=(1, 1))
            (conv2): ModulatedDeformConv(
              in_channels=256, out_channels=256, kernel_size=(3, 3), stride=1, padding=1, dilation=1, groups=1, deformable_groups=1, bias=False
              (norm): FrozenBatchNorm2d(num_features=256, eps=1e-05)
            )
            (conv3): Conv2d(
              256, 1024, kernel_size=(1, 1), stride=(1, 1), bias=False
              (norm): FrozenBatchNorm2d(num_features=1024, eps=1e-05)
            )
          )
          (9): DeformBottleneckBlock(
            (conv1): Conv2d(
              1024, 256, kernel_size=(1, 1), stride=(1, 1), bias=False
              (norm): FrozenBatchNorm2d(num_features=256, eps=1e-05)
            )
            (conv2_offset): Conv2d(256, 27, kernel_size=(3, 3), stride=(1, 1), padding=(1, 1))
            (conv2): ModulatedDeformConv(
              in_channels=256, out_channels=256, kernel_size=(3, 3), stride=1, padding=1, dilation=1, groups=1, deformable_groups=1, bias=False
              (norm): FrozenBatchNorm2d(num_features=256, eps=1e-05)
            )
            (conv3): Conv2d(
              256, 1024, kernel_size=(1, 1), stride=(1, 1), bias=False
              (norm): FrozenBatchNorm2d(num_features=1024, eps=1e-05)
            )
          )
          (10): DeformBottleneckBlock(
            (conv1): Conv2d(
              1024, 256, kernel_size=(1, 1), stride=(1, 1), bias=False
              (norm): FrozenBatchNorm2d(num_features=256, eps=1e-05)
            )
            (conv2_offset): Conv2d(256, 27, kernel_size=(3, 3), stride=(1, 1), padding=(1, 1))
            (conv2): ModulatedDeformConv(
              in_channels=256, out_channels=256, kernel_size=(3, 3), stride=1, padding=1, dilation=1, groups=1, deformable_groups=1, bias=False
              (norm): FrozenBatchNorm2d(num_features=256, eps=1e-05)
            )
            (conv3): Conv2d(
              256, 1024, kernel_size=(1, 1), stride=(1, 1), bias=False
              (norm): FrozenBatchNorm2d(num_features=1024, eps=1e-05)
            )
          )
          (11): DeformBottleneckBlock(
            (conv1): Conv2d(
              1024, 256, kernel_size=(1, 1), stride=(1, 1), bias=False
              (norm): FrozenBatchNorm2d(num_features=256, eps=1e-05)
            )
            (conv2_offset): Conv2d(256, 27, kernel_size=(3, 3), stride=(1, 1), padding=(1, 1))
            (conv2): ModulatedDeformConv(
              in_channels=256, out_channels=256, kernel_size=(3, 3), stride=1, padding=1, dilation=1, groups=1, deformable_groups=1, bias=False
              (norm): FrozenBatchNorm2d(num_features=256, eps=1e-05)
            )
            (conv3): Conv2d(
              256, 1024, kernel_size=(1, 1), stride=(1, 1), bias=False
              (norm): FrozenBatchNorm2d(num_features=1024, eps=1e-05)
            )
          )
          (12): DeformBottleneckBlock(
            (conv1): Conv2d(
              1024, 256, kernel_size=(1, 1), stride=(1, 1), bias=False
              (norm): FrozenBatchNorm2d(num_features=256, eps=1e-05)
            )
            (conv2_offset): Conv2d(256, 27, kernel_size=(3, 3), stride=(1, 1), padding=(1, 1))
            (conv2): ModulatedDeformConv(
              in_channels=256, out_channels=256, kernel_size=(3, 3), stride=1, padding=1, dilation=1, groups=1, deformable_groups=1, bias=False
              (norm): FrozenBatchNorm2d(num_features=256, eps=1e-05)
            )
            (conv3): Conv2d(
              256, 1024, kernel_size=(1, 1), stride=(1, 1), bias=False
              (norm): FrozenBatchNorm2d(num_features=1024, eps=1e-05)
            )
          )
          (13): DeformBottleneckBlock(
            (conv1): Conv2d(
              1024, 256, kernel_size=(1, 1), stride=(1, 1), bias=False
              (norm): FrozenBatchNorm2d(num_features=256, eps=1e-05)
            )
            (conv2_offset): Conv2d(256, 27, kernel_size=(3, 3), stride=(1, 1), padding=(1, 1))
            (conv2): ModulatedDeformConv(
              in_channels=256, out_channels=256, kernel_size=(3, 3), stride=1, padding=1, dilation=1, groups=1, deformable_groups=1, bias=False
              (norm): FrozenBatchNorm2d(num_features=256, eps=1e-05)
            )
            (conv3): Conv2d(
              256, 1024, kernel_size=(1, 1), stride=(1, 1), bias=False
              (norm): FrozenBatchNorm2d(num_features=1024, eps=1e-05)
            )
          )
          (14): DeformBottleneckBlock(
            (conv1): Conv2d(
              1024, 256, kernel_size=(1, 1), stride=(1, 1), bias=False
              (norm): FrozenBatchNorm2d(num_features=256, eps=1e-05)
            )
            (conv2_offset): Conv2d(256, 27, kernel_size=(3, 3), stride=(1, 1), padding=(1, 1))
            (conv2): ModulatedDeformConv(
              in_channels=256, out_channels=256, kernel_size=(3, 3), stride=1, padding=1, dilation=1, groups=1, deformable_groups=1, bias=False
              (norm): FrozenBatchNorm2d(num_features=256, eps=1e-05)
            )
            (conv3): Conv2d(
              256, 1024, kernel_size=(1, 1), stride=(1, 1), bias=False
              (norm): FrozenBatchNorm2d(num_features=1024, eps=1e-05)
            )
          )
          (15): DeformBottleneckBlock(
            (conv1): Conv2d(
              1024, 256, kernel_size=(1, 1), stride=(1, 1), bias=False
              (norm): FrozenBatchNorm2d(num_features=256, eps=1e-05)
            )
            (conv2_offset): Conv2d(256, 27, kernel_size=(3, 3), stride=(1, 1), padding=(1, 1))
            (conv2): ModulatedDeformConv(
              in_channels=256, out_channels=256, kernel_size=(3, 3), stride=1, padding=1, dilation=1, groups=1, deformable_groups=1, bias=False
              (norm): FrozenBatchNorm2d(num_features=256, eps=1e-05)
            )
            (conv3): Conv2d(
              256, 1024, kernel_size=(1, 1), stride=(1, 1), bias=False
              (norm): FrozenBatchNorm2d(num_features=1024, eps=1e-05)
            )
          )
          (16): DeformBottleneckBlock(
            (conv1): Conv2d(
              1024, 256, kernel_size=(1, 1), stride=(1, 1), bias=False
              (norm): FrozenBatchNorm2d(num_features=256, eps=1e-05)
            )
            (conv2_offset): Conv2d(256, 27, kernel_size=(3, 3), stride=(1, 1), padding=(1, 1))
            (conv2): ModulatedDeformConv(
              in_channels=256, out_channels=256, kernel_size=(3, 3), stride=1, padding=1, dilation=1, groups=1, deformable_groups=1, bias=False
              (norm): FrozenBatchNorm2d(num_features=256, eps=1e-05)
            )
            (conv3): Conv2d(
              256, 1024, kernel_size=(1, 1), stride=(1, 1), bias=False
              (norm): FrozenBatchNorm2d(num_features=1024, eps=1e-05)
            )
          )
          (17): DeformBottleneckBlock(
            (conv1): Conv2d(
              1024, 256, kernel_size=(1, 1), stride=(1, 1), bias=False
              (norm): FrozenBatchNorm2d(num_features=256, eps=1e-05)
            )
            (conv2_offset): Conv2d(256, 27, kernel_size=(3, 3), stride=(1, 1), padding=(1, 1))
            (conv2): ModulatedDeformConv(
              in_channels=256, out_channels=256, kernel_size=(3, 3), stride=1, padding=1, dilation=1, groups=1, deformable_groups=1, bias=False
              (norm): FrozenBatchNorm2d(num_features=256, eps=1e-05)
            )
            (conv3): Conv2d(
              256, 1024, kernel_size=(1, 1), stride=(1, 1), bias=False
              (norm): FrozenBatchNorm2d(num_features=1024, eps=1e-05)
            )
          )
          (18): DeformBottleneckBlock(
            (conv1): Conv2d(
              1024, 256, kernel_size=(1, 1), stride=(1, 1), bias=False
              (norm): FrozenBatchNorm2d(num_features=256, eps=1e-05)
            )
            (conv2_offset): Conv2d(256, 27, kernel_size=(3, 3), stride=(1, 1), padding=(1, 1))
            (conv2): ModulatedDeformConv(
              in_channels=256, out_channels=256, kernel_size=(3, 3), stride=1, padding=1, dilation=1, groups=1, deformable_groups=1, bias=False
              (norm): FrozenBatchNorm2d(num_features=256, eps=1e-05)
            )
            (conv3): Conv2d(
              256, 1024, kernel_size=(1, 1), stride=(1, 1), bias=False
              (norm): FrozenBatchNorm2d(num_features=1024, eps=1e-05)
            )
          )
          (19): DeformBottleneckBlock(
            (conv1): Conv2d(
              1024, 256, kernel_size=(1, 1), stride=(1, 1), bias=False
              (norm): FrozenBatchNorm2d(num_features=256, eps=1e-05)
            )
            (conv2_offset): Conv2d(256, 27, kernel_size=(3, 3), stride=(1, 1), padding=(1, 1))
            (conv2): ModulatedDeformConv(
              in_channels=256, out_channels=256, kernel_size=(3, 3), stride=1, padding=1, dilation=1, groups=1, deformable_groups=1, bias=False
              (norm): FrozenBatchNorm2d(num_features=256, eps=1e-05)
            )
            (conv3): Conv2d(
              256, 1024, kernel_size=(1, 1), stride=(1, 1), bias=False
              (norm): FrozenBatchNorm2d(num_features=1024, eps=1e-05)
            )
          )
          (20): DeformBottleneckBlock(
            (conv1): Conv2d(
              1024, 256, kernel_size=(1, 1), stride=(1, 1), bias=False
              (norm): FrozenBatchNorm2d(num_features=256, eps=1e-05)
            )
            (conv2_offset): Conv2d(256, 27, kernel_size=(3, 3), stride=(1, 1), padding=(1, 1))
            (conv2): ModulatedDeformConv(
              in_channels=256, out_channels=256, kernel_size=(3, 3), stride=1, padding=1, dilation=1, groups=1, deformable_groups=1, bias=False
              (norm): FrozenBatchNorm2d(num_features=256, eps=1e-05)
            )
            (conv3): Conv2d(
              256, 1024, kernel_size=(1, 1), stride=(1, 1), bias=False
              (norm): FrozenBatchNorm2d(num_features=1024, eps=1e-05)
            )
          )
          (21): DeformBottleneckBlock(
            (conv1): Conv2d(
              1024, 256, kernel_size=(1, 1), stride=(1, 1), bias=False
              (norm): FrozenBatchNorm2d(num_features=256, eps=1e-05)
            )
            (conv2_offset): Conv2d(256, 27, kernel_size=(3, 3), stride=(1, 1), padding=(1, 1))
            (conv2): ModulatedDeformConv(
              in_channels=256, out_channels=256, kernel_size=(3, 3), stride=1, padding=1, dilation=1, groups=1, deformable_groups=1, bias=False
              (norm): FrozenBatchNorm2d(num_features=256, eps=1e-05)
            )
            (conv3): Conv2d(
              256, 1024, kernel_size=(1, 1), stride=(1, 1), bias=False
              (norm): FrozenBatchNorm2d(num_features=1024, eps=1e-05)
            )
          )
          (22): DeformBottleneckBlock(
            (conv1): Conv2d(
              1024, 256, kernel_size=(1, 1), stride=(1, 1), bias=False
              (norm): FrozenBatchNorm2d(num_features=256, eps=1e-05)
            )
            (conv2_offset): Conv2d(256, 27, kernel_size=(3, 3), stride=(1, 1), padding=(1, 1))
            (conv2): ModulatedDeformConv(
              in_channels=256, out_channels=256, kernel_size=(3, 3), stride=1, padding=1, dilation=1, groups=1, deformable_groups=1, bias=False
              (norm): FrozenBatchNorm2d(num_features=256, eps=1e-05)
            )
            (conv3): Conv2d(
              256, 1024, kernel_size=(1, 1), stride=(1, 1), bias=False
              (norm): FrozenBatchNorm2d(num_features=1024, eps=1e-05)
            )
          )
        )
        (res5): Sequential(
          (0): DeformBottleneckBlock(
            (shortcut): Conv2d(
              1024, 2048, kernel_size=(1, 1), stride=(2, 2), bias=False
              (norm): FrozenBatchNorm2d(num_features=2048, eps=1e-05)
            )
            (conv1): Conv2d(
              1024, 512, kernel_size=(1, 1), stride=(1, 1), bias=False
              (norm): FrozenBatchNorm2d(num_features=512, eps=1e-05)
            )
            (conv2_offset): Conv2d(512, 27, kernel_size=(3, 3), stride=(2, 2), padding=(1, 1))
            (conv2): ModulatedDeformConv(
              in_channels=512, out_channels=512, kernel_size=(3, 3), stride=2, padding=1, dilation=1, groups=1, deformable_groups=1, bias=False
              (norm): FrozenBatchNorm2d(num_features=512, eps=1e-05)
            )
            (conv3): Conv2d(
              512, 2048, kernel_size=(1, 1), stride=(1, 1), bias=False
              (norm): FrozenBatchNorm2d(num_features=2048, eps=1e-05)
            )
          )
          (1): DeformBottleneckBlock(
            (conv1): Conv2d(
              2048, 512, kernel_size=(1, 1), stride=(1, 1), bias=False
              (norm): FrozenBatchNorm2d(num_features=512, eps=1e-05)
            )
            (conv2_offset): Conv2d(512, 27, kernel_size=(3, 3), stride=(1, 1), padding=(1, 1))
            (conv2): ModulatedDeformConv(
              in_channels=512, out_channels=512, kernel_size=(3, 3), stride=1, padding=1, dilation=1, groups=1, deformable_groups=1, bias=False
              (norm): FrozenBatchNorm2d(num_features=512, eps=1e-05)
            )
            (conv3): Conv2d(
              512, 2048, kernel_size=(1, 1), stride=(1, 1), bias=False
              (norm): FrozenBatchNorm2d(num_features=2048, eps=1e-05)
            )
          )
          (2): DeformBottleneckBlock(
            (conv1): Conv2d(
              2048, 512, kernel_size=(1, 1), stride=(1, 1), bias=False
              (norm): FrozenBatchNorm2d(num_features=512, eps=1e-05)
            )
            (conv2_offset): Conv2d(512, 27, kernel_size=(3, 3), stride=(1, 1), padding=(1, 1))
            (conv2): ModulatedDeformConv(
              in_channels=512, out_channels=512, kernel_size=(3, 3), stride=1, padding=1, dilation=1, groups=1, deformable_groups=1, bias=False
              (norm): FrozenBatchNorm2d(num_features=512, eps=1e-05)
            )
            (conv3): Conv2d(
              512, 2048, kernel_size=(1, 1), stride=(1, 1), bias=False
              (norm): FrozenBatchNorm2d(num_features=2048, eps=1e-05)
            )
          )
        )
      )
    )
    (proposal_generator): FCOS(
      (fcos_head): FCOSHead(
        (cls_tower): Sequential(
          (0): Conv2d(256, 256, kernel_size=(3, 3), stride=(1, 1), padding=(1, 1))
          (1): GroupNorm(32, 256, eps=1e-05, affine=True)
          (2): ReLU()
          (3): Conv2d(256, 256, kernel_size=(3, 3), stride=(1, 1), padding=(1, 1))
          (4): GroupNorm(32, 256, eps=1e-05, affine=True)
          (5): ReLU()
          (6): Conv2d(256, 256, kernel_size=(3, 3), stride=(1, 1), padding=(1, 1))
          (7): GroupNorm(32, 256, eps=1e-05, affine=True)
          (8): ReLU()
          (9): Conv2d(256, 256, kernel_size=(3, 3), stride=(1, 1), padding=(1, 1))
          (10): GroupNorm(32, 256, eps=1e-05, affine=True)
          (11): ReLU()
        )
        (bbox_tower): Sequential(
          (0): Conv2d(256, 256, kernel_size=(3, 3), stride=(1, 1), padding=(1, 1))
          (1): GroupNorm(32, 256, eps=1e-05, affine=True)
          (2): ReLU()
          (3): Conv2d(256, 256, kernel_size=(3, 3), stride=(1, 1), padding=(1, 1))
          (4): GroupNorm(32, 256, eps=1e-05, affine=True)
          (5): ReLU()
          (6): Conv2d(256, 256, kernel_size=(3, 3), stride=(1, 1), padding=(1, 1))
          (7): GroupNorm(32, 256, eps=1e-05, affine=True)
          (8): ReLU()
          (9): Conv2d(256, 256, kernel_size=(3, 3), stride=(1, 1), padding=(1, 1))
          (10): GroupNorm(32, 256, eps=1e-05, affine=True)
          (11): ReLU()
        )
        (share_tower): Sequential()
        (cls_logits): Conv2d(256, 80, kernel_size=(3, 3), stride=(1, 1), padding=(1, 1))
        (bbox_pred): Conv2d(256, 4, kernel_size=(3, 3), stride=(1, 1), padding=(1, 1))
        (ctrness): Conv2d(256, 1, kernel_size=(3, 3), stride=(1, 1), padding=(1, 1))
        (scales): ModuleList(
          (0): Scale()
          (1): Scale()
          (2): Scale()
          (3): Scale()
          (4): Scale()
        )
      )
      (fcos_outputs): FCOSOutputs(
        (loc_loss_func): IOULoss()
      )
    )
    (mask_head): DynamicMaskHead(
      (MSELoss): MSELoss()
    )
    (mask_branch): MaskBranch(
      (refine): ModuleList(
        (0): Sequential(
          (0): Conv2d(256, 128, kernel_size=(3, 3), stride=(1, 1), padding=(1, 1), bias=False)
          (1): BatchNorm2d(128, eps=1e-05, momentum=0.1, affine=True, track_running_stats=True)
          (2): ReLU(inplace=True)
        )
        (1): Sequential(
          (0): Conv2d(256, 128, kernel_size=(3, 3), stride=(1, 1), padding=(1, 1), bias=False)
          (1): BatchNorm2d(128, eps=1e-05, momentum=0.1, affine=True, track_running_stats=True)
          (2): ReLU(inplace=True)
        )
        (2): Sequential(
          (0): Conv2d(256, 128, kernel_size=(3, 3), stride=(1, 1), padding=(1, 1), bias=False)
          (1): BatchNorm2d(128, eps=1e-05, momentum=0.1, affine=True, track_running_stats=True)
          (2): ReLU(inplace=True)
        )
      )
      (tower): Sequential(
        (0): Sequential(
          (0): Conv2d(128, 128, kernel_size=(3, 3), stride=(1, 1), padding=(1, 1), bias=False)
          (1): BatchNorm2d(128, eps=1e-05, momentum=0.1, affine=True, track_running_stats=True)
          (2): ReLU(inplace=True)
        )
        (1): Sequential(
          (0): Conv2d(128, 128, kernel_size=(3, 3), stride=(1, 1), padding=(1, 1), bias=False)
          (1): BatchNorm2d(128, eps=1e-05, momentum=0.1, affine=True, track_running_stats=True)
          (2): ReLU(inplace=True)
        )
        (2): Sequential(
          (0): Conv2d(128, 128, kernel_size=(3, 3), stride=(1, 1), padding=(1, 1), bias=False)
          (1): BatchNorm2d(128, eps=1e-05, momentum=0.1, affine=True, track_running_stats=True)
          (2): ReLU(inplace=True)
        )
        (3): Sequential(
          (0): Conv2d(128, 128, kernel_size=(3, 3), stride=(1, 1), padding=(1, 1), bias=False)
          (1): BatchNorm2d(128, eps=1e-05, momentum=0.1, affine=True, track_running_stats=True)
          (2): ReLU(inplace=True)
        )
        (4): Conv2d(128, 16, kernel_size=(1, 1), stride=(1, 1))
      )
    )
    (controller): Conv2d(256, 233, kernel_size=(3, 3), stride=(1, 1), padding=(1, 1))
  )
)
[32m[06/24 21:27:38 d2.checkpoint.detection_checkpoint]: [0m[DetectionCheckpointer] Loading from /path/workspace/research/segmentation/BoxSeg/../BoxSeg_checkpoints/gavyn.voc.boxseg_r101_dcn_3x/model_final.pth ...
[32m[06/24 21:27:38 fvcore.common.checkpoint]: [0m[Checkpointer] Loading from /path/workspace/research/segmentation/BoxSeg/../BoxSeg_checkpoints/gavyn.voc.boxseg_r101_dcn_3x/model_final.pth ...
…
[38;5;15m    [39m[38;5;197mNUM_ITER[39m[38;5;15m:[39m[38;5;15m [39m[38;5;141m200[39m
[38;5;197mVERSION[39m[38;5;15m:[39m[38;5;15m [39m[38;5;141m2[39m
[38;5;197mVIS_PERIOD[39m[38;5;15m:[39m[38;5;15m [39m[38;5;141m0[39m

[32m[06/24 21:29:27 detectron2]: [0mFull config saved to /path/workspace/research/segmentation/BoxSeg/../BoxSeg_checkpoints/gavyn.voc.boxseg_swin-base_3x/test-dev/config.yaml
[32m[06/24 21:29:27 d2.utils.env]: [0mUsing a generated random seed 27470267
[32m[06/24 21:29:37 d2.engine.defaults]: [0mModel:
BoxSeg(
  (teacher): CondInst(
    (backbone): FPN(
      (fpn_lateral3): Conv2d(256, 256, kernel_size=(1, 1), stride=(1, 1))
…
                  (proj): Linear(in_features=512, out_features=512, bias=True)
                  (proj_drop): Dropout(p=0.0, inplace=False)
                  (softmax): Softmax(dim=-1)
                )
                (drop_path): DropPath(drop_prob=0.061)
                (norm2): LayerNorm((512,), eps=1e-05, elementwise_affine=True)
                (mlp): Mlp(
                  (fc1): Linear(in_features=512, out_features=2048, bias=True)
                  (act): GELU()
                  (fc2): Linear(in_features=2048, out_features=512, bias=True)
                  (drop): Dropout(p=0.0, inplace=False)
                )
              )
              (4): SwinTransformerBlock(
                (norm1): LayerNorm((512,), eps=1e-05, elementwise_affine=True)
                (attn): WindowAttention(
                  (qkv): Linear(in_features=512, out_features=1536, bias=True)
                  (attn_drop): Dropout(p=0.0, inplace=False)
                  (proj): Linear(in_features=512, out_features=512, bias=True)
                  (proj_drop): Dropout(p=0.0, inplace=False)
                  (softmax): Softmax(dim=-1)
                )
                (drop_path): DropPath(drop_prob=0.070)
                (norm2): LayerNorm((512,), eps=1e-05, elementwise_affine=True)
                (mlp): Mlp(
                  (fc1): Linear(in_features=512, out_features=2048, bias=True)
                  (act): GELU()
                  (fc2): Linear(in_features=2048, out_features=512, bias=True)
                  (drop): Dropout(p=0.0, inplace=False)
                )
              )
              (5): SwinTransformerBlock(
                (norm1): LayerNorm((512,), eps=1e-05, elementwise_affine=True)
                (attn): WindowAttention(
                  (qkv): Linear(in_features=512, out_features=1536, bias=True)
                  (attn_drop): Dropout(p=0.0, inplace=False)
                  (proj): Linear(in_features=512, out_features=512, bias=True)
                  (proj_drop): Dropout(p=0.0, inplace=False)
                  (softmax): Softmax(dim=-1)
                )
                (drop_path): DropPath(drop_prob=0.078)
                (norm2): LayerNorm((512,), eps=1e-05, elementwise_affine=True)
                (mlp): Mlp(
                  (fc1): Linear(in_features=512, out_features=2048, bias=True)
                  (act): GELU()
                  (fc2): Linear(in_features=2048, out_features=512, bias=True)
                  (drop): Dropout(p=0.0, inplace=False)
                )
              )
              (6): SwinTransformerBlock(
                (norm1): LayerNorm((512,), eps=1e-05, elementwise_affine=True)
                (attn): WindowAttention(
                  (qkv): Linear(in_features=512, out_features=1536, bias=True)
                  (attn_drop): Dropout(p=0.0, inplace=False)
                  (proj): Linear(in_features=512, out_features=512, bias=True)
                  (proj_drop): Dropout(p=0.0, inplace=False)
                  (softmax): Softmax(dim=-1)
                )
                (drop_path): DropPath(drop_prob=0.087)
                (norm2): LayerNorm((512,), eps=1e-05, elementwise_affine=True)
                (mlp): Mlp(
                  (fc1): Linear(in_features=512, out_features=2048, bias=True)
                  (act): GELU()
                  (fc2): Linear(in_features=2048, out_features=512, bias=True)
                  (drop): Dropout(p=0.0, inplace=False)
                )
              )
              (7): SwinTransformerBlock(
                (norm1): LayerNorm((512,), eps=1e-05, elementwise_affine=True)
                (attn): WindowAttention(
                  (qkv): Linear(in_features=512, out_features=1536, bias=True)
                  (attn_drop): Dropout(p=0.0, inplace=False)
                  (proj): Linear(in_features=512, out_features=512, bias=True)
                  (proj_drop): Dropout(p=0.0, inplace=False)
                  (softmax): Softmax(dim=-1)
                )
                (drop_path): DropPath(drop_prob=0.096)
                (norm2): LayerNorm((512,), eps=1e-05, elementwise_affine=True)
                (mlp): Mlp(
                  (fc1): Linear(in_features=512, out_features=2048, bias=True)
                  (act): GELU()
                  (fc2): Linear(in_features=2048, out_features=512, bias=True)
                  (drop): Dropout(p=0.0, inplace=False)
                )
              )
              (8): SwinTransformerBlock(
                (norm1): LayerNorm((512,), eps=1e-05, elementwise_affine=True)
                (attn): WindowAttention(
                  (qkv): Linear(in_features=512, out_features=1536, bias=True)
                  (attn_drop): Dropout(p=0.0, inplace=False)
                  (proj): Linear(in_features=512, out_features=512, bias=True)
                  (proj_drop): Dropout(p=0.0, inplace=False)
                  (softmax): Softmax(dim=-1)
                )
                (drop_path): DropPath(drop_prob=0.104)
                (norm2): LayerNorm((512,), eps=1e-05, elementwise_affine=True)
                (mlp): Mlp(
                  (fc1): Linear(in_features=512, out_features=2048, bias=True)
                  (act): GELU()
                  (fc2): Linear(in_features=2048, out_features=512, bias=True)
                  (drop): Dropout(p=0.0, inplace=False)
                )
              )
              (9): SwinTransformerBlock(
                (norm1): LayerNorm((512,), eps=1e-05, elementwise_affine=True)
                (attn): WindowAttention(
                  (qkv): Linear(in_features=512, out_features=1536, bias=True)
                  (attn_drop): Dropout(p=0.0, inplace=False)
                  (proj): Linear(in_features=512, out_features=512, bias=True)
                  (proj_drop): Dropout(p=0.0, inplace=False)
                  (softmax): Softmax(dim=-1)
                )
                (drop_path): DropPath(drop_prob=0.113)
                (norm2): LayerNorm((512,), eps=1e-05, elementwise_affine=True)
                (mlp): Mlp(
                  (fc1): Linear(in_features=512, out_features=2048, bias=True)
                  (act): GELU()
                  (fc2): Linear(in_features=2048, out_features=512, bias=True)
                  (drop): Dropout(p=0.0, inplace=False)
                )
              )
              (10): SwinTransformerBlock(
                (norm1): LayerNorm((512,), eps=1e-05, elementwise_affine=True)
                (attn): WindowAttention(
                  (qkv): Linear(in_features=512, out_features=1536, bias=True)
                  (attn_drop): Dropout(p=0.0, inplace=False)
                  (proj): Linear(in_features=512, out_features=512, bias=True)
                  (proj_drop): Dropout(p=0.0, inplace=False)
                  (softmax): Softmax(dim=-1)
                )
                (drop_path): DropPath(drop_prob=0.122)
                (norm2): LayerNorm((512,), eps=1e-05, elementwise_affine=True)
                (mlp): Mlp(
                  (fc1): Linear(in_features=512, out_features=2048, bias=True)
                  (act): GELU()
                  (fc2): Linear(in_features=2048, out_features=512, bias=True)
                  (drop): Dropout(p=0.0, inplace=False)
                )
              )
              (11): SwinTransformerBlock(
                (norm1): LayerNorm((512,), eps=1e-05, elementwise_affine=True)
                (attn): WindowAttention(
                  (qkv): Linear(in_features=512, out_features=1536, bias=True)
                  (attn_drop): Dropout(p=0.0, inplace=False)
                  (proj): Linear(in_features=512, out_features=512, bias=True)
                  (proj_drop): Dropout(p=0.0, inplace=False)
                  (softmax): Softmax(dim=-1)
                )
                (drop_path): DropPath(drop_prob=0.130)
                (norm2): LayerNorm((512,), eps=1e-05, elementwise_affine=True)
                (mlp): Mlp(
                  (fc1): Linear(in_features=512, out_features=2048, bias=True)
                  (act): GELU()
                  (fc2): Linear(in_features=2048, out_features=512, bias=True)
                  (drop): Dropout(p=0.0, inplace=False)
                )
              )
              (12): SwinTransformerBlock(
                (norm1): LayerNorm((512,), eps=1e-05, elementwise_affine=True)
                (attn): WindowAttention(
                  (qkv): Linear(in_features=512, out_features=1536, bias=True)
                  (attn_drop): Dropout(p=0.0, inplace=False)
                  (proj): Linear(in_features=512, out_features=512, bias=True)
                  (proj_drop): Dropout(p=0.0, inplace=False)
                  (softmax): Softmax(dim=-1)
                )
                (drop_path): DropPath(drop_prob=0.139)
                (norm2): LayerNorm((512,), eps=1e-05, elementwise_affine=True)
                (mlp): Mlp(
                  (fc1): Linear(in_features=512, out_features=2048, bias=True)
                  (act): GELU()
                  (fc2): Linear(in_features=2048, out_features=512, bias=True)
                  (drop): Dropout(p=0.0, inplace=False)
                )
              )
              (13): SwinTransformerBlock(
                (norm1): LayerNorm((512,), eps=1e-05, elementwise_affine=True)
                (attn): WindowAttention(
                  (qkv): Linear(in_features=512, out_features=1536, bias=True)
                  (attn_drop): Dropout(p=0.0, inplace=False)
                  (proj): Linear(in_features=512, out_features=512, bias=True)
                  (proj_drop): Dropout(p=0.0, inplace=False)
                  (softmax): Softmax(dim=-1)
                )
                (drop_path): DropPath(drop_prob=0.148)
                (norm2): LayerNorm((512,), eps=1e-05, elementwise_affine=True)
                (mlp): Mlp(
                  (fc1): Linear(in_features=512, out_features=2048, bias=True)
                  (act): GELU()
                  (fc2): Linear(in_features=2048, out_features=512, bias=True)
                  (drop): Dropout(p=0.0, inplace=False)
                )
              )
              (14): SwinTransformerBlock(
                (norm1): LayerNorm((512,), eps=1e-05, elementwise_affine=True)
                (attn): WindowAttention(
                  (qkv): Linear(in_features=512, out_features=1536, bias=True)
                  (attn_drop): Dropout(p=0.0, inplace=False)
                  (proj): Linear(in_features=512, out_features=512, bias=True)
                  (proj_drop): Dropout(p=0.0, inplace=False)
                  (softmax): Softmax(dim=-1)
                )
                (drop_path): DropPath(drop_prob=0.157)
                (norm2): LayerNorm((512,), eps=1e-05, elementwise_affine=True)
                (mlp): Mlp(
                  (fc1): Linear(in_features=512, out_features=2048, bias=True)
                  (act): GELU()
                  (fc2): Linear(in_features=2048, out_features=512, bias=True)
                  (drop): Dropout(p=0.0, inplace=False)
                )
              )
              (15): SwinTransformerBlock(
                (norm1): LayerNorm((512,), eps=1e-05, elementwise_affine=True)
                (attn): WindowAttention(
                  (qkv): Linear(in_features=512, out_features=1536, bias=True)
                  (attn_drop): Dropout(p=0.0, inplace=False)
                  (proj): Linear(in_features=512, out_features=512, bias=True)
                  (proj_drop): Dropout(p=0.0, inplace=False)
                  (softmax): Softmax(dim=-1)
                )
                (drop_path): DropPath(drop_prob=0.165)
                (norm2): LayerNorm((512,), eps=1e-05, elementwise_affine=True)
                (mlp): Mlp(
                  (fc1): Linear(in_features=512, out_features=2048, bias=True)
                  (act): GELU()
                  (fc2): Linear(in_features=2048, out_features=512, bias=True)
                  (drop): Dropout(p=0.0, inplace=False)
                )
              )
              (16): SwinTransformerBlock(
                (norm1): LayerNorm((512,), eps=1e-05, elementwise_affine=True)
                (attn): WindowAttention(
                  (qkv): Linear(in_features=512, out_features=1536, bias=True)
                  (attn_drop): Dropout(p=0.0, inplace=False)
                  (proj): Linear(in_features=512, out_features=512, bias=True)
                  (proj_drop): Dropout(p=0.0, inplace=False)
                  (softmax): Softmax(dim=-1)
                )
                (drop_path): DropPath(drop_prob=0.174)
                (norm2): LayerNorm((512,), eps=1e-05, elementwise_affine=True)
                (mlp): Mlp(
                  (fc1): Linear(in_features=512, out_features=2048, bias=True)
                  (act): GELU()
                  (fc2): Linear(in_features=2048, out_features=512, bias=True)
                  (drop): Dropout(p=0.0, inplace=False)
                )
              )
              (17): SwinTransformerBlock(
                (norm1): LayerNorm((512,), eps=1e-05, elementwise_affine=True)
                (attn): WindowAttention(
                  (qkv): Linear(in_features=512, out_features=1536, bias=True)
                  (attn_drop): Dropout(p=0.0, inplace=False)
                  (proj): Linear(in_features=512, out_features=512, bias=True)
                  (proj_drop): Dropout(p=0.0, inplace=False)
                  (softmax): Softmax(dim=-1)
                )
                (drop_path): DropPath(drop_prob=0.183)
                (norm2): LayerNorm((512,), eps=1e-05, elementwise_affine=True)
                (mlp): Mlp(
                  (fc1): Linear(in_features=512, out_features=2048, bias=True)
                  (act): GELU()
                  (fc2): Linear(in_features=2048, out_features=512, bias=True)
                  (drop): Dropout(p=0.0, inplace=False)
                )
              )
            )
            (downsample): PatchMerging(
              (reduction): Linear(in_features=2048, out_features=1024, bias=False)
              (norm): LayerNorm((2048,), eps=1e-05, elementwise_affine=True)
            )
          )
          (3): BasicLayer(
            (blocks): ModuleList(
              (0): SwinTransformerBlock(
                (norm1): LayerNorm((1024,), eps=1e-05, elementwise_affine=True)
                (attn): WindowAttention(
                  (qkv): Linear(in_features=1024, out_features=3072, bias=True)
                  (attn_drop): Dropout(p=0.0, inplace=False)
                  (proj): Linear(in_features=1024, out_features=1024, bias=True)
                  (proj_drop): Dropout(p=0.0, inplace=False)
                  (softmax): Softmax(dim=-1)
                )
                (drop_path): DropPath(drop_prob=0.191)
                (norm2): LayerNorm((1024,), eps=1e-05, elementwise_affine=True)
                (mlp): Mlp(
                  (fc1): Linear(in_features=1024, out_features=4096, bias=True)
                  (act): GELU()
                  (fc2): Linear(in_features=4096, out_features=1024, bias=True)
                  (drop): Dropout(p=0.0, inplace=False)
                )
              )
              (1): SwinTransformerBlock(
                (norm1): LayerNorm((1024,), eps=1e-05, elementwise_affine=True)
                (attn): WindowAttention(
                  (qkv): Linear(in_features=1024, out_features=3072, bias=True)
                  (attn_drop): Dropout(p=0.0, inplace=False)
                  (proj): Linear(in_features=1024, out_features=1024, bias=True)
                  (proj_drop): Dropout(p=0.0, inplace=False)
                  (softmax): Softmax(dim=-1)
                )
                (drop_path): DropPath(drop_prob=0.200)
                (norm2): LayerNorm((1024,), eps=1e-05, elementwise_affine=True)
                (mlp): Mlp(
                  (fc1): Linear(in_features=1024, out_features=4096, bias=True)
                  (act): GELU()
                  (fc2): Linear(in_features=4096, out_features=1024, bias=True)
                  (drop): Dropout(p=0.0, inplace=False)
                )
              )
            )
          )
        )
        (norm1): LayerNorm((256,), eps=1e-05, elementwise_affine=True)
        (norm2): LayerNorm((512,), eps=1e-05, elementwise_affine=True)
        (norm3): LayerNorm((1024,), eps=1e-05, elementwise_affine=True)
      )
    )
    (proposal_generator): FCOS(
      (fcos_head): FCOSHead(
        (cls_tower): Sequential(
          (0): Conv2d(256, 256, kernel_size=(3, 3), stride=(1, 1), padding=(1, 1))
          (1): GroupNorm(32, 256, eps=1e-05, affine=True)
          (2): ReLU()
          (3): Conv2d(256, 256, kernel_size=(3, 3), stride=(1, 1), padding=(1, 1))
          (4): GroupNorm(32, 256, eps=1e-05, affine=True)
          (5): ReLU()
          (6): Conv2d(256, 256, kernel_size=(3, 3), stride=(1, 1), padding=(1, 1))
          (7): GroupNorm(32, 256, eps=1e-05, affine=True)
          (8): ReLU()
          (9): Conv2d(256, 256, kernel_size=(3, 3), stride=(1, 1), padding=(1, 1))
          (10): GroupNorm(32, 256, eps=1e-05, affine=True)
          (11): ReLU()
        )
        (bbox_tower): Sequential(
          (0): Conv2d(256, 256, kernel_size=(3, 3), stride=(1, 1), padding=(1, 1))
          (1): GroupNorm(32, 256, eps=1e-05, affine=True)
          (2): ReLU()
          (3): Conv2d(256, 256, kernel_size=(3, 3), stride=(1, 1), padding=(1, 1))
          (4): GroupNorm(32, 256, eps=1e-05, affine=True)
          (5): ReLU()
          (6): Conv2d(256, 256, kernel_size=(3, 3), stride=(1, 1), padding=(1, 1))
          (7): GroupNorm(32, 256, eps=1e-05, affine=True)
          (8): ReLU()
          (9): Conv2d(256, 256, kernel_size=(3, 3), stride=(1, 1), padding=(1, 1))
          (10): GroupNorm(32, 256, eps=1e-05, affine=True)
          (11): ReLU()
        )
        (share_tower): Sequential()
        (cls_logits): Conv2d(256, 80, kernel_size=(3, 3), stride=(1, 1), padding=(1, 1))
        (bbox_pred): Conv2d(256, 4, kernel_size=(3, 3), stride=(1, 1), padding=(1, 1))
        (ctrness): Conv2d(256, 1, kernel_size=(3, 3), stride=(1, 1), padding=(1, 1))
        (scales): ModuleList(
          (0): Scale()
          (1): Scale()
          (2): Scale()
          (3): Scale()
          (4): Scale()
        )
      )
      (fcos_outputs): FCOSOutputs(
        (loc_loss_func): IOULoss()
      )
    )
    (mask_head): DynamicMaskHead(
      (MSELoss): MSELoss()
    )
    (mask_branch): MaskBranch(
      (refine): ModuleList(
        (0): Sequential(
          (0): Conv2d(256, 128, kernel_size=(3, 3), stride=(1, 1), padding=(1, 1), bias=False)
          (1): BatchNorm2d(128, eps=1e-05, momentum=0.1, affine=True, track_running_stats=True)
          (2): ReLU(inplace=True)
        )
        (1): Sequential(
          (0): Conv2d(256, 128, kernel_size=(3, 3), stride=(1, 1), padding=(1, 1), bias=False)
          (1): BatchNorm2d(128, eps=1e-05, momentum=0.1, affine=True, track_running_stats=True)
          (2): ReLU(inplace=True)
        )
        (2): Sequential(
          (0): Conv2d(256, 128, kernel_size=(3, 3), stride=(1, 1), padding=(1, 1), bias=False)
          (1): BatchNorm2d(128, eps=1e-05, momentum=0.1, affine=True, track_running_stats=True)
          (2): ReLU(inplace=True)
        )
      )
      (tower): Sequential(
        (0): Sequential(
          (0): Conv2d(128, 128, kernel_size=(3, 3), stride=(1, 1), padding=(1, 1), bias=False)
          (1): BatchNorm2d(128, eps=1e-05, momentum=0.1, affine=True, track_running_stats=True)
          (2): ReLU(inplace=True)
        )
        (1): Sequential(
          (0): Conv2d(128, 128, kernel_size=(3, 3), stride=(1, 1), padding=(1, 1), bias=False)
          (1): BatchNorm2d(128, eps=1e-05, momentum=0.1, affine=True, track_running_stats=True)
          (2): ReLU(inplace=True)
        )
        (2): Sequential(
          (0): Conv2d(128, 128, kernel_size=(3, 3), stride=(1, 1), padding=(1, 1), bias=False)
          (1): BatchNorm2d(128, eps=1e-05, momentum=0.1, affine=True, track_running_stats=True)
          (2): ReLU(inplace=True)
        )
        (3): Sequential(
          (0): Conv2d(128, 128, kernel_size=(3, 3), stride=(1, 1), padding=(1, 1), bias=False)
          (1): BatchNorm2d(128, eps=1e-05, momentum=0.1, affine=True, track_running_stats=True)
          (2): ReLU(inplace=True)
        )
        (4): Conv2d(128, 16, kernel_size=(1, 1), stride=(1, 1))
      )
    )
    (controller): Conv2d(256, 233, kernel_size=(3, 3), stride=(1, 1), padding=(1, 1))
  )
  (student): CondInst(
    (backbone): FPN(
      (fpn_lateral3): Conv2d(256, 256, kernel_size=(1, 1), stride=(1, 1))
      (fpn_output3): Conv2d(256, 256, kernel_size=(3, 3), stride=(1, 1), padding=(1, 1))
      (fpn_lateral4): Conv2d(512, 256, kernel_size=(1, 1), stride=(1, 1))
      (fpn_output4): Conv2d(256, 256, kernel_size=(3, 3), stride=(1, 1), padding=(1, 1))
      (fpn_lateral5): Conv2d(1024, 256, kernel_size=(1, 1), stride=(1, 1))
      (fpn_output5): Conv2d(256, 256, kernel_size=(3, 3), stride=(1, 1), padding=(1, 1))
      (top_block): LastLevelP6P7(
        (p6): Conv2d(256, 256, kernel_size=(3, 3), stride=(2, 2), padding=(1, 1))
        (p7): Conv2d(256, 256, kernel_size=(3, 3), stride=(2, 2), padding=(1, 1))
      )
      (bottom_up): SwinTransformer(
        (patch_embed): PatchEmbed(
          (proj): Conv2d(3, 128, kernel_size=(4, 4), stride=(4, 4))
          (norm): LayerNorm((128,), eps=1e-05, elementwise_affine=True)
        )
        (pos_drop): Dropout(p=0.0, inplace=False)
        (layers): ModuleList(
          (0): BasicLayer(
            (blocks): ModuleList(
              (0): SwinTransformerBlock(
                (norm1): LayerNorm((128,), eps=1e-05, elementwise_affine=True)
                (attn): WindowAttention(
                  (qkv): Linear(in_features=128, out_features=384, bias=True)
                  (attn_drop): Dropout(p=0.0, inplace=False)
                  (proj): Linear(in_features=128, out_features=128, bias=True)
                  (proj_drop): Dropout(p=0.0, inplace=False)
                  (softmax): Softmax(dim=-1)
                )
                (drop_path): Identity()
                (norm2): LayerNorm((128,), eps=1e-05, elementwise_affine=True)
                (mlp): Mlp(
                  (fc1): Linear(in_features=128, out_features=512, bias=True)
                  (act): GELU()
                  (fc2): Linear(in_features=512, out_features=128, bias=True)
                  (drop): Dropout(p=0.0, inplace=False)
                )
              )
              (1): SwinTransformerBlock(
                (norm1): LayerNorm((128,), eps=1e-05, elementwise_affine=True)
                (attn): WindowAttention(
                  (qkv): Linear(in_features=128, out_features=384, bias=True)
                  (attn_drop): Dropout(p=0.0, inplace=False)
                  (proj): Linear(in_features=128, out_features=128, bias=True)
                  (proj_drop): Dropout(p=0.0, inplace=False)
                  (softmax): Softmax(dim=-1)
                )
                (drop_path): DropPath(drop_prob=0.009)
                (norm2): LayerNorm((128,), eps=1e-05, elementwise_affine=True)
                (mlp): Mlp(
                  (fc1): Linear(in_features=128, out_features=512, bias=True)
                  (act): GELU()
                  (fc2): Linear(in_features=512, out_features=128, bias=True)
                  (drop): Dropout(p=0.0, inplace=False)
                )
              )
            )
            (downsample): PatchMerging(
              (reduction): Linear(in_features=512, out_features=256, bias=False)
              (norm): LayerNorm((512,), eps=1e-05, elementwise_affine=True)
            )
          )
          (1): BasicLayer(
            (blocks): ModuleList(
              (0): SwinTransformerBlock(
                (norm1): LayerNorm((256,), eps=1e-05, elementwise_affine=True)
                (attn): WindowAttention(
                  (qkv): Linear(in_features=256, out_features=768, bias=True)
                  (attn_drop): Dropout(p=0.0, inplace=False)
                  (proj): Linear(in_features=256, out_features=256, bias=True)
                  (proj_drop): Dropout(p=0.0, inplace=False)
                  (softmax): Softmax(dim=-1)
                )
                (drop_path): DropPath(drop_prob=0.017)
                (norm2): LayerNorm((256,), eps=1e-05, elementwise_affine=True)
                (mlp): Mlp(
                  (fc1): Linear(in_features=256, out_features=1024, bias=True)
                  (act): GELU()
                  (fc2): Linear(in_features=1024, out_features=256, bias=True)
                  (drop): Dropout(p=0.0, inplace=False)
                )
              )
              (1): SwinTransformerBlock(
                (norm1): LayerNorm((256,), eps=1e-05, elementwise_affine=True)
                (attn): WindowAttention(
                  (qkv): Linear(in_features=256, out_features=768, bias=True)
                  (attn_drop): Dropout(p=0.0, inplace=False)
                  (proj): Linear(in_features=256, out_features=256, bias=True)
                  (proj_drop): Dropout(p=0.0, inplace=False)
                  (softmax): Softmax(dim=-1)
                )
                (drop_path): DropPath(drop_prob=0.026)
                (norm2): LayerNorm((256,), eps=1e-05, elementwise_affine=True)
                (mlp): Mlp(
                  (fc1): Linear(in_features=256, out_features=1024, bias=True)
                  (act): GELU()
                  (fc2): Linear(in_features=1024, out_features=256, bias=True)
                  (drop): Dropout(p=0.0, inplace=False)
                )
              )
            )
            (downsample): PatchMerging(
              (reduction): Linear(in_features=1024, out_features=512, bias=False)
              (norm): LayerNorm((1024,), eps=1e-05, elementwise_affine=True)
            )
          )
          (2): BasicLayer(
            (blocks): ModuleList(
              (0): SwinTransformerBlock(
                (norm1): LayerNorm((512,), eps=1e-05, elementwise_affine=True)
                (attn): WindowAttention(
                  (qkv): Linear(in_features=512, out_features=1536, bias=True)
                  (attn_drop): Dropout(p=0.0, inplace=False)
                  (proj): Linear(in_features=512, out_features=512, bias=True)
                  (proj_drop): Dropout(p=0.0, inplace=False)
                  (softmax): Softmax(dim=-1)
                )
                (drop_path): DropPath(drop_prob=0.035)
                (norm2): LayerNorm((512,), eps=1e-05, elementwise_affine=True)
                (mlp): Mlp(
                  (fc1): Linear(in_features=512, out_features=2048, bias=True)
                  (act): GELU()
                  (fc2): Linear(in_features=2048, out_features=512, bias=True)
                  (drop): Dropout(p=0.0, inplace=False)
                )
              )
              (1): SwinTransformerBlock(
                (norm1): LayerNorm((512,), eps=1e-05, elementwise_affine=True)
                (attn): WindowAttention(
                  (qkv): Linear(in_features=512, out_features=1536, bias=True)
                  (attn_drop): Dropout(p=0.0, inplace=False)
                  (proj): Linear(in_features=512, out_features=512, bias=True)
                  (proj_drop): Dropout(p=0.0, inplace=False)
                  (softmax): Softmax(dim=-1)
                )
                (drop_path): DropPath(drop_prob=0.043)
                (norm2): LayerNorm((512,), eps=1e-05, elementwise_affine=True)
                (mlp): Mlp(
                  (fc1): Linear(in_features=512, out_features=2048, bias=True)
                  (act): GELU()
                  (fc2): Linear(in_features=2048, out_features=512, bias=True)
                  (drop): Dropout(p=0.0, inplace=False)
                )
              )
              (2): SwinTransformerBlock(
                (norm1): LayerNorm((512,), eps=1e-05, elementwise_affine=True)
                (attn): WindowAttention(
                  (qkv): Linear(in_features=512, out_features=1536, bias=True)
                  (attn_drop): Dropout(p=0.0, inplace=False)
                  (proj): Linear(in_features=512, out_features=512, bias=True)
                  (proj_drop): Dropout(p=0.0, inplace=False)
                  (softmax): Softmax(dim=-1)
                )
                (drop_path): DropPath(drop_prob=0.052)
                (norm2): LayerNorm((512,), eps=1e-05, elementwise_affine=True)
                (mlp): Mlp(
                  (fc1): Linear(in_features=512, out_features=2048, bias=True)
                  (act): GELU()
                  (fc2): Linear(in_features=2048, out_features=512, bias=True)
                  (drop): Dropout(p=0.0, inplace=False)
                )
              )
              (3): SwinTransformerBlock(
                (norm1): LayerNorm((512,), eps=1e-05, elementwise_affine=True)
                (attn): WindowAttention(
                  (qkv): Linear(in_features=512, out_features=1536, bias=True)
                  (attn_drop): Dropout(p=0.0, inplace=False)
                  (proj): Linear(in_features=512, out_features=512, bias=True)
                  (proj_drop): Dropout(p=0.0, inplace=False)
                  (softmax): Softmax(dim=-1)
                )
                (drop_path): DropPath(drop_prob=0.061)
                (norm2): LayerNorm((512,), eps=1e-05, elementwise_affine=True)
                (mlp): Mlp(
                  (fc1): Linear(in_features=512, out_features=2048, bias=True)
                  (act): GELU()
                  (fc2): Linear(in_features=2048, out_features=512, bias=True)
                  (drop): Dropout(p=0.0, inplace=False)
                )
              )
              (4): SwinTransformerBlock(
                (norm1): LayerNorm((512,), eps=1e-05, elementwise_affine=True)
                (attn): WindowAttention(
                  (qkv): Linear(in_features=512, out_features=1536, bias=True)
                  (attn_drop): Dropout(p=0.0, inplace=False)
                  (proj): Linear(in_features=512, out_features=512, bias=True)
                  (proj_drop): Dropout(p=0.0, inplace=False)
                  (softmax): Softmax(dim=-1)
                )
                (drop_path): DropPath(drop_prob=0.070)
                (norm2): LayerNorm((512,), eps=1e-05, elementwise_affine=True)
                (mlp): Mlp(
                  (fc1): Linear(in_features=512, out_features=2048, bias=True)
                  (act): GELU()
                  (fc2): Linear(in_features=2048, out_features=512, bias=True)
                  (drop): Dropout(p=0.0, inplace=False)
                )
              )
              (5): SwinTransformerBlock(
                (norm1): LayerNorm((512,), eps=1e-05, elementwise_affine=True)
                (attn): WindowAttention(
                  (qkv): Linear(in_features=512, out_features=1536, bias=True)
                  (attn_drop): Dropout(p=0.0, inplace=False)
                  (proj): Linear(in_features=512, out_features=512, bias=True)
                  (proj_drop): Dropout(p=0.0, inplace=False)
                  (softmax): Softmax(dim=-1)
                )
                (drop_path): DropPath(drop_prob=0.078)
                (norm2): LayerNorm((512,), eps=1e-05, elementwise_affine=True)
                (mlp): Mlp(
                  (fc1): Linear(in_features=512, out_features=2048, bias=True)
                  (act): GELU()
                  (fc2): Linear(in_features=2048, out_features=512, bias=True)
                  (drop): Dropout(p=0.0, inplace=False)
                )
              )
              (6): SwinTransformerBlock(
                (norm1): LayerNorm((512,), eps=1e-05, elementwise_affine=True)
                (attn): WindowAttention(
                  (qkv): Linear(in_features=512, out_features=1536, bias=True)
                  (attn_drop): Dropout(p=0.0, inplace=False)
                  (proj): Linear(in_features=512, out_features=512, bias=True)
                  (proj_drop): Dropout(p=0.0, inplace=False)
                  (softmax): Softmax(dim=-1)
                )
                (drop_path): DropPath(drop_prob=0.087)
                (norm2): LayerNorm((512,), eps=1e-05, elementwise_affine=True)
                (mlp): Mlp(
                  (fc1): Linear(in_features=512, out_features=2048, bias=True)
                  (act): GELU()
                  (fc2): Linear(in_features=2048, out_features=512, bias=True)
                  (drop): Dropout(p=0.0, inplace=False)
                )
              )
              (7): SwinTransformerBlock(
                (norm1): LayerNorm((512,), eps=1e-05, elementwise_affine=True)
                (attn): WindowAttention(
                  (qkv): Linear(in_features=512, out_features=1536, bias=True)
                  (attn_drop): Dropout(p=0.0, inplace=False)
                  (proj): Linear(in_features=512, out_features=512, bias=True)
                  (proj_drop): Dropout(p=0.0, inplace=False)
                  (softmax): Softmax(dim=-1)
                )
                (drop_path): DropPath(drop_prob=0.096)
                (norm2): LayerNorm((512,), eps=1e-05, elementwise_affine=True)
                (mlp): Mlp(
                  (fc1): Linear(in_features=512, out_features=2048, bias=True)
                  (act): GELU()
                  (fc2): Linear(in_features=2048, out_features=512, bias=True)
                  (drop): Dropout(p=0.0, inplace=False)
                )
              )
              (8): SwinTransformerBlock(
                (norm1): LayerNorm((512,), eps=1e-05, elementwise_affine=True)
                (attn): WindowAttention(
                  (qkv): Linear(in_features=512, out_features=1536, bias=True)
                  (attn_drop): Dropout(p=0.0, inplace=False)
                  (proj): Linear(in_features=512, out_features=512, bias=True)
                  (proj_drop): Dropout(p=0.0, inplace=False)
                  (softmax): Softmax(dim=-1)
                )
                (drop_path): DropPath(drop_prob=0.104)
                (norm2): LayerNorm((512,), eps=1e-05, elementwise_affine=True)
                (mlp): Mlp(
                  (fc1): Linear(in_features=512, out_features=2048, bias=True)
                  (act): GELU()
                  (fc2): Linear(in_features=2048, out_features=512, bias=True)
                  (drop): Dropout(p=0.0, inplace=False)
                )
              )
              (9): SwinTransformerBlock(
                (norm1): LayerNorm((512,), eps=1e-05, elementwise_affine=True)
                (attn): WindowAttention(
                  (qkv): Linear(in_features=512, out_features=1536, bias=True)
                  (attn_drop): Dropout(p=0.0, inplace=False)
                  (proj): Linear(in_features=512, out_features=512, bias=True)
                  (proj_drop): Dropout(p=0.0, inplace=False)
                  (softmax): Softmax(dim=-1)
                )
                (drop_path): DropPath(drop_prob=0.113)
                (norm2): LayerNorm((512,), eps=1e-05, elementwise_affine=True)
                (mlp): Mlp(
                  (fc1): Linear(in_features=512, out_features=2048, bias=True)
                  (act): GELU()
                  (fc2): Linear(in_features=2048, out_features=512, bias=True)
                  (drop): Dropout(p=0.0, inplace=False)
                )
              )
              (10): SwinTransformerBlock(
                (norm1): LayerNorm((512,), eps=1e-05, elementwise_affine=True)
                (attn): WindowAttention(
                  (qkv): Linear(in_features=512, out_features=1536, bias=True)
                  (attn_drop): Dropout(p=0.0, inplace=False)
                  (proj): Linear(in_features=512, out_features=512, bias=True)
                  (proj_drop): Dropout(p=0.0, inplace=False)
                  (softmax): Softmax(dim=-1)
                )
                (drop_path): DropPath(drop_prob=0.122)
                (norm2): LayerNorm((512,), eps=1e-05, elementwise_affine=True)
                (mlp): Mlp(
                  (fc1): Linear(in_features=512, out_features=2048, bias=True)
                  (act): GELU()
                  (fc2): Linear(in_features=2048, out_features=512, bias=True)
                  (drop): Dropout(p=0.0, inplace=False)
                )
              )
              (11): SwinTransformerBlock(
                (norm1): LayerNorm((512,), eps=1e-05, elementwise_affine=True)
                (attn): WindowAttention(
                  (qkv): Linear(in_features=512, out_features=1536, bias=True)
                  (attn_drop): Dropout(p=0.0, inplace=False)
                  (proj): Linear(in_features=512, out_features=512, bias=True)
                  (proj_drop): Dropout(p=0.0, inplace=False)
                  (softmax): Softmax(dim=-1)
                )
                (drop_path): DropPath(drop_prob=0.130)
                (norm2): LayerNorm((512,), eps=1e-05, elementwise_affine=True)
                (mlp): Mlp(
                  (fc1): Linear(in_features=512, out_features=2048, bias=True)
                  (act): GELU()
                  (fc2): Linear(in_features=2048, out_features=512, bias=True)
                  (drop): Dropout(p=0.0, inplace=False)
                )
              )
              (12): SwinTransformerBlock(
                (norm1): LayerNorm((512,), eps=1e-05, elementwise_affine=True)
                (attn): WindowAttention(
                  (qkv): Linear(in_features=512, out_features=1536, bias=True)
                  (attn_drop): Dropout(p=0.0, inplace=False)
                  (proj): Linear(in_features=512, out_features=512, bias=True)
                  (proj_drop): Dropout(p=0.0, inplace=False)
                  (softmax): Softmax(dim=-1)
                )
                (drop_path): DropPath(drop_prob=0.139)
                (norm2): LayerNorm((512,), eps=1e-05, elementwise_affine=True)
                (mlp): Mlp(
                  (fc1): Linear(in_features=512, out_features=2048, bias=True)
                  (act): GELU()
                  (fc2): Linear(in_features=2048, out_features=512, bias=True)
                  (drop): Dropout(p=0.0, inplace=False)
                )
              )
              (13): SwinTransformerBlock(
                (norm1): LayerNorm((512,), eps=1e-05, elementwise_affine=True)
                (attn): WindowAttention(
                  (qkv): Linear(in_features=512, out_features=1536, bias=True)
                  (attn_drop): Dropout(p=0.0, inplace=False)
                  (proj): Linear(in_features=512, out_features=512, bias=True)
                  (proj_drop): Dropout(p=0.0, inplace=False)
                  (softmax): Softmax(dim=-1)
                )
                (drop_path): DropPath(drop_prob=0.148)
                (norm2): LayerNorm((512,), eps=1e-05, elementwise_affine=True)
                (mlp): Mlp(
                  (fc1): Linear(in_features=512, out_features=2048, bias=True)
                  (act): GELU()
                  (fc2): Linear(in_features=2048, out_features=512, bias=True)
                  (drop): Dropout(p=0.0, inplace=False)
                )
              )
              (14): SwinTransformerBlock(
                (norm1): LayerNorm((512,), eps=1e-05, elementwise_affine=True)
                (attn): WindowAttention(
                  (qkv): Linear(in_features=512, out_features=1536, bias=True)
                  (attn_drop): Dropout(p=0.0, inplace=False)
                  (proj): Linear(in_features=512, out_features=512, bias=True)
                  (proj_drop): Dropout(p=0.0, inplace=False)
                  (softmax): Softmax(dim=-1)
                )
                (drop_path): DropPath(drop_prob=0.157)
                (norm2): LayerNorm((512,), eps=1e-05, elementwise_affine=True)
                (mlp): Mlp(
                  (fc1): Linear(in_features=512, out_features=2048, bias=True)
                  (act): GELU()
                  (fc2): Linear(in_features=2048, out_features=512, bias=True)
                  (drop): Dropout(p=0.0, inplace=False)
                )
              )
              (15): SwinTransformerBlock(
                (norm1): LayerNorm((512,), eps=1e-05, elementwise_affine=True)
                (attn): WindowAttention(
                  (qkv): Linear(in_features=512, out_features=1536, bias=True)
                  (attn_drop): Dropout(p=0.0, inplace=False)
                  (proj): Linear(in_features=512, out_features=512, bias=True)
                  (proj_drop): Dropout(p=0.0, inplace=False)
                  (softmax): Softmax(dim=-1)
                )
                (drop_path): DropPath(drop_prob=0.165)
                (norm2): LayerNorm((512,), eps=1e-05, elementwise_affine=True)
                (mlp): Mlp(
                  (fc1): Linear(in_features=512, out_features=2048, bias=True)
                  (act): GELU()
                  (fc2): Linear(in_features=2048, out_features=512, bias=True)
                  (drop): Dropout(p=0.0, inplace=False)
                )
              )
              (16): SwinTransformerBlock(
                (norm1): LayerNorm((512,), eps=1e-05, elementwise_affine=True)
                (attn): WindowAttention(
                  (qkv): Linear(in_features=512, out_features=1536, bias=True)
                  (attn_drop): Dropout(p=0.0, inplace=False)
                  (proj): Linear(in_features=512, out_features=512, bias=True)
                  (proj_drop): Dropout(p=0.0, inplace=False)
                  (softmax): Softmax(dim=-1)
                )
                (drop_path): DropPath(drop_prob=0.174)
                (norm2): LayerNorm((512,), eps=1e-05, elementwise_affine=True)
                (mlp): Mlp(
                  (fc1): Linear(in_features=512, out_features=2048, bias=True)
                  (act): GELU()
                  (fc2): Linear(in_features=2048, out_features=512, bias=True)
                  (drop): Dropout(p=0.0, inplace=False)
                )
              )
              (17): SwinTransformerBlock(
                (norm1): LayerNorm((512,), eps=1e-05, elementwise_affine=True)
                (attn): WindowAttention(
                  (qkv): Linear(in_features=512, out_features=1536, bias=True)
                  (attn_drop): Dropout(p=0.0, inplace=False)
                  (proj): Linear(in_features=512, out_features=512, bias=True)
                  (proj_drop): Dropout(p=0.0, inplace=False)
                  (softmax): Softmax(dim=-1)
                )
                (drop_path): DropPath(drop_prob=0.183)
                (norm2): LayerNorm((512,), eps=1e-05, elementwise_affine=True)
                (mlp): Mlp(
                  (fc1): Linear(in_features=512, out_features=2048, bias=True)
                  (act): GELU()
                  (fc2): Linear(in_features=2048, out_features=512, bias=True)
                  (drop): Dropout(p=0.0, inplace=False)
                )
              )
            )
            (downsample): PatchMerging(
              (reduction): Linear(in_features=2048, out_features=1024, bias=False)
              (norm): LayerNorm((2048,), eps=1e-05, elementwise_affine=True)
            )
          )
          (3): BasicLayer(
            (blocks): ModuleList(
              (0): SwinTransformerBlock(
                (norm1): LayerNorm((1024,), eps=1e-05, elementwise_affine=True)
                (attn): WindowAttention(
                  (qkv): Linear(in_features=1024, out_features=3072, bias=True)
                  (attn_drop): Dropout(p=0.0, inplace=False)
                  (proj): Linear(in_features=1024, out_features=1024, bias=True)
                  (proj_drop): Dropout(p=0.0, inplace=False)
                  (softmax): Softmax(dim=-1)
                )
                (drop_path): DropPath(drop_prob=0.191)
                (norm2): LayerNorm((1024,), eps=1e-05, elementwise_affine=True)
                (mlp): Mlp(
                  (fc1): Linear(in_features=1024, out_features=4096, bias=True)
                  (act): GELU()
                  (fc2): Linear(in_features=4096, out_features=1024, bias=True)
                  (drop): Dropout(p=0.0, inplace=False)
                )
              )
              (1): SwinTransformerBlock(
                (norm1): LayerNorm((1024,), eps=1e-05, elementwise_affine=True)
                (attn): WindowAttention(
                  (qkv): Linear(in_features=1024, out_features=3072, bias=True)
                  (attn_drop): Dropout(p=0.0, inplace=False)
                  (proj): Linear(in_features=1024, out_features=1024, bias=True)
                  (proj_drop): Dropout(p=0.0, inplace=False)
                  (softmax): Softmax(dim=-1)
                )
                (drop_path): DropPath(drop_prob=0.200)
                (norm2): LayerNorm((1024,), eps=1e-05, elementwise_affine=True)
                (mlp): Mlp(
                  (fc1): Linear(in_features=1024, out_features=4096, bias=True)
                  (act): GELU()
                  (fc2): Linear(in_features=4096, out_features=1024, bias=True)
                  (drop): Dropout(p=0.0, inplace=False)
                )
              )
            )
          )
        )
        (norm1): LayerNorm((256,), eps=1e-05, elementwise_affine=True)
        (norm2): LayerNorm((512,), eps=1e-05, elementwise_affine=True)
        (norm3): LayerNorm((1024,), eps=1e-05, elementwise_affine=True)
      )
    )
    (proposal_generator): FCOS(
      (fcos_head): FCOSHead(
        (cls_tower): Sequential(
          (0): Conv2d(256, 256, kernel_size=(3, 3), stride=(1, 1), padding=(1, 1))
          (1): GroupNorm(32, 256, eps=1e-05, affine=True)
          (2): ReLU()
          (3): Conv2d(256, 256, kernel_size=(3, 3), stride=(1, 1), padding=(1, 1))
          (4): GroupNorm(32, 256, eps=1e-05, affine=True)
          (5): ReLU()
          (6): Conv2d(256, 256, kernel_size=(3, 3), stride=(1, 1), padding=(1, 1))
          (7): GroupNorm(32, 256, eps=1e-05, affine=True)
          (8): ReLU()
          (9): Conv2d(256, 256, kernel_size=(3, 3), stride=(1, 1), padding=(1, 1))
          (10): GroupNorm(32, 256, eps=1e-05, affine=True)
          (11): ReLU()
        )
        (bbox_tower): Sequential(
          (0): Conv2d(256, 256, kernel_size=(3, 3), stride=(1, 1), padding=(1, 1))
          (1): GroupNorm(32, 256, eps=1e-05, affine=True)
          (2): ReLU()
          (3): Conv2d(256, 256, kernel_size=(3, 3), stride=(1, 1), padding=(1, 1))
          (4): GroupNorm(32, 256, eps=1e-05, affine=True)
          (5): ReLU()
          (6): Conv2d(256, 256, kernel_size=(3, 3), stride=(1, 1), padding=(1, 1))
          (7): GroupNorm(32, 256, eps=1e-05, affine=True)
          (8): ReLU()
          (9): Conv2d(256, 256, kernel_size=(3, 3), stride=(1, 1), padding=(1, 1))
          (10): GroupNorm(32, 256, eps=1e-05, affine=True)
          (11): ReLU()
        )
        (share_tower): Sequential()
        (cls_logits): Conv2d(256, 80, kernel_size=(3, 3), stride=(1, 1), padding=(1, 1))
        (bbox_pred): Conv2d(256, 4, kernel_size=(3, 3), stride=(1, 1), padding=(1, 1))
        (ctrness): Conv2d(256, 1, kernel_size=(3, 3), stride=(1, 1), padding=(1, 1))
        (scales): ModuleList(
          (0): Scale()
          (1): Scale()
          (2): Scale()
          (3): Scale()
          (4): Scale()
        )
      )
      (fcos_outputs): FCOSOutputs(
        (loc_loss_func): IOULoss()
      )
    )
    (mask_head): DynamicMaskHead(
      (MSELoss): MSELoss()
    )
    (mask_branch): MaskBranch(
      (refine): ModuleList(
        (0): Sequential(
          (0): Conv2d(256, 128, kernel_size=(3, 3), stride=(1, 1), padding=(1, 1), bias=False)
          (1): BatchNorm2d(128, eps=1e-05, momentum=0.1, affine=True, track_running_stats=True)
          (2): ReLU(inplace=True)
        )
        (1): Sequential(
          (0): Conv2d(256, 128, kernel_size=(3, 3), stride=(1, 1), padding=(1, 1), bias=False)
          (1): BatchNorm2d(128, eps=1e-05, momentum=0.1, affine=True, track_running_stats=True)
          (2): ReLU(inplace=True)
        )
        (2): Sequential(
          (0): Conv2d(256, 128, kernel_size=(3, 3), stride=(1, 1), padding=(1, 1), bias=False)
          (1): BatchNorm2d(128, eps=1e-05, momentum=0.1, affine=True, track_running_stats=True)
          (2): ReLU(inplace=True)
        )
      )
      (tower): Sequential(
        (0): Sequential(
          (0): Conv2d(128, 128, kernel_size=(3, 3), stride=(1, 1), padding=(1, 1), bias=False)
          (1): BatchNorm2d(128, eps=1e-05, momentum=0.1, affine=True, track_running_stats=True)
          (2): ReLU(inplace=True)
        )
        (1): Sequential(
          (0): Conv2d(128, 128, kernel_size=(3, 3), stride=(1, 1), padding=(1, 1), bias=False)
          (1): BatchNorm2d(128, eps=1e-05, momentum=0.1, affine=True, track_running_stats=True)
          (2): ReLU(inplace=True)
        )
        (2): Sequential(
          (0): Conv2d(128, 128, kernel_size=(3, 3), stride=(1, 1), padding=(1, 1), bias=False)
          (1): BatchNorm2d(128, eps=1e-05, momentum=0.1, affine=True, track_running_stats=True)
          (2): ReLU(inplace=True)
        )
        (3): Sequential(
          (0): Conv2d(128, 128, kernel_size=(3, 3), stride=(1, 1), padding=(1, 1), bias=False)
          (1): BatchNorm2d(128, eps=1e-05, momentum=0.1, affine=True, track_running_stats=True)
          (2): ReLU(inplace=True)
        )
        (4): Conv2d(128, 16, kernel_size=(1, 1), stride=(1, 1))
      )
    )
    (controller): Conv2d(256, 233, kernel_size=(3, 3), stride=(1, 1), padding=(1, 1))
  )
)
[32m[06/24 21:29:37 d2.checkpoint.detection_checkpoint]: [0m[DetectionCheckpointer] Loading from /path/workspace/research/segmentation/BoxSeg/../BoxSeg_checkpoints/gavyn.voc.boxseg_swin-base_3x/model_final.pth ...
[32m[06/24 21:29:37 fvcore.common.checkpoint]: [0m[Checkpointer] Loading from /path/workspace/research/segmentation/BoxSeg/../BoxSeg_checkpoints/gavyn.voc.boxseg_swin-base_3x/model_final.pth ...
…
